analyse_fase-kenmerken_onderzoek/Engagement/modellen/topic-model-bs/topic_embeddings.safetensors (safetensors, 714328 bytes, 1 tensors)

topic_embeddings f4 [465, 384]
00000000: 64bc 9bbc 9495 213c 2df6 183c 0a9e 793c
00000010: fa2e 6c3d c128 e53b 64c3 d53c a367 c5bc
00000020: d98e f0bb e795 7a3b c61f 493c 0d74 023d
00000030: ef2b 9e3c ee2c 87ba f13f 33bc 7462 853c
00000040: 6b9e e3bb 255b 1bbd 69db 16bd d4a4 313b
00000050: 4c81 19bc 6965 9ebc 2e7c ae3c 1ff8 8e3c
00000060: fede e6bc a27a 483d d7b2 0b3b 9738 003c
00000070: c5ab adbb fd28 353d 342b a13c fe85 0cbb
00000080: 3b49 afb9 6bb7 323d 1cfd 463d b595 0fbd
00000090: 9e5c 583d 2726 b6bc d642 923c 1bda 463b
000000a0: 601f 793d 7d80 09bd 1146 aa3b a1b1 373c
000000b0: 7e1b 48bc b02a c63c d993 64bc e540 9d3c
000000c0: 18bd 91bc 9ccd 17bd 75c9 b6bc fb58 0c3b
000000d0: 3443 0dbc f102 593c e1c4 18bb 6818 ebbc
000000e0: efb0 5e3b 5a24 b7bc 83bb f53c 46e4 bf3c
000000f0: 22f3 863b 5567 403c 0ca2 183c 8f90 803c
00000100: 2617 f13b b299 b039 d3cd 1cbd cdc8 29bc
00000110: 45f6 973b 0b36 3b3c c0ac 433d 98d4 cb3c
00000120: 78c7 1a3c 4766 1c3c 14f1 aabc 8ed4 d9bc
00000130: e0e7 11bc 0581 843c 69b3 213c 9241 fdbb
00000140: 77f3 213d a219 89bd 3a02 ca3c abf4 a93b
00000150: 4985 8cbc 7ff2 dfbc be96 8cbc 3012 efbc
00000160: 8898 f23c 1a28 c33b 0008 2abd 20a0 ec3b
00000170: 9c48 583d 32a6 98bc ff47 cdbc a6fa 5d3c
00000180: 9315 4c3c b12b d23c 7828 aabd 30d0 0e3d
00000190: 4aed 06bb 592d 15bb 1aab 0fbd 0b86 20bd
000001a0: d7c5 32bb 26fc f3bc 0ae8 a7bb 5c2c a1bc
000001b0: 5faa cfbc d824 cf3c 462e 9e3c 3376 bebc
000001c0: b790 b1bc dd10 f63b 52ee 463d 2fda 3dbc
000001d0: d8d0 50bc 4164 8eba ab8a eebc 1e09 d0bb
000001e0: eabb 783c c981 273d 07ee 52bd 454c 3a3d
000001f0: 741d 293d c19b adbc bbe7 2abd b06e 5e88
00000200: 96ca 923c ef10 173c f641 b2bc 1724 c4bc
00000210: 0259 0b3d f35c 71bc a659 8cbc 81df d8bc
00000220: d2e6 e73c f24a 503d 1a8c 0bbc 7abb 023c
00000230: 9d24 d0bc 765b 1c3b 75fc 94bc 175e 243c
00000240: c6ca ffbc a28c c63c 8529 f2bc 81e5 063d
00000250: c7cd 3b3d 916e 0dbc 9bbf 4bba 25b8 883d
00000260: e0d1 60bc a44a 2c3d bb96 7c3b 08ca 51bc
00000270: e4e8 4e3d 555b 9a3b 422c f0bc cf2b 263d
00000280: fef5 6f3c 82b9 f33c 4c80 ed3c b7ec 363c
00000290: ac20 313c 77dd c5bb 4151 30bd 373f a3bb
000002a0: e781 623b 7788 7e3b 5663 26bb dc1e 013c
000002b0: e3db 6d3c 31b9 203c b977 453a 5512 f0bc
000002c0: b4c9 613c 09d8 dfbc 220c b03b 8a08 143d
000002d0: ab6d 1fbc 47a1 28bc ae43 97ba fc6b 7e3b
000002e0: 1c34 eabc 4f3f 143d 9b74 ff3c aaf5 15bc
000002f0: 8102 01bd 3720 76bc 44f2 fbbc d56f df3b
00000300: 4af2 debb 7f54 77bc f702 1ebd 3750 8f3c
00000310: 31e3 e6bc b996 ab39 29cb f63c a8a7 ea39
00000320: 1e18 933c a402 0e3c 3e09 5fbd 76f0 22bc
00000330: 5490 003a 6eef 2e3c ee29 ac3c 3b04 c9bc
00000340: 3742 d3bc 55d0 9abc f31e 863d 616b 473c
00000350: 34d4 b1bb f8b6 bbbc 5d9e 443c e267 903a
00000360: b124 a9bb 76a9 c03c 841b 89bd 2826 a9bc
00000370: f3bd cf3c b712 c03c f20b 69bd baea 0d89
00000380: 3426 a0bc 8966 13bd 7b11 21bd 98a5 e83a
00000390: 02b1 5e3c 4faa d33a 9f11 c439 8c5e 3dbb
000003a0: 15d9 4b3d 9981 bf3b ab8f b2bc 0b8d d2bc
000003b0: 6522 9b3c 5e38 423d 265e f43c fc48 b4bc
000003c0: 483f 6d3d 814d 493c 21ed 0abd 766c f23c
000003d0: 9cbf 81bc 8dbc fa3b fc6e 1abd 58d5 513d
000003e0: 76ca a4bc 72fd fd3c 51e0 923d 0819 30bc
000003f0: cee7 25ba b647 6cbc 3b3a dabc 67c1 203c
-0.01901073 0.009862322 0.009336037 0.015235433 0.057661988 0.0069933836 0.026094146 -0.02409727
-0.0073412475 0.0038236321 0.012275642 0.031848956 0.019308059 -0.0010313073 -0.010940538 0.016282298
-0.006946375 -0.03792872 -0.03683034 0.0027106302 -0.009369206 -0.019335466 0.021299448 0.017452298
-0.028182503 0.048945077 0.0021316314 0.007825992 -0.0053000175 0.044228543 0.019673921 -0.002144217
-0.00033433162 0.043631952 0.048581228 -0.03505488 0.0528227 -0.02223499 0.017854135 0.0030342403
0.060820937 -0.0335698 0.005196341 0.011211784 -0.012213586 0.024190277 -0.013951265 0.019195983
-0.017790362 -0.03706132 -0.02231286 0.0021415341 -0.0086219795 0.01324533 -0.0023310708 -0.028698161
0.0033979972 -0.022356201 0.02999664 0.023424279 0.004118339 0.011743386 0.009315979 0.01569393
0.007357496 0.00033683848 -0.038282227 -0.010362816 0.004637512 0.011426459 0.04777217 0.024881646
0.009446971 0.009545869 -0.020866908 -0.026590612 -0.008905381 0.016174803 0.009869435 -0.007728764
0.039538827 -0.06694342 0.024659265 0.0051866374 -0.017153399 -0.02733731 -0.017161723 -0.029183477
0.029613748 0.005955708 -0.041511536 0.007221237 0.05280362 -0.018633936 -0.025058744 0.013548529
0.012456316 0.0256556 -0.083085 0.03486651 -0.0020588213 -0.0022762625 -0.035075285 -0.039190333
-0.0027278566 -0.02978332 -0.0051240968 -0.019674473 -0.025349794 0.025286123 0.019309174 -0.023249721
-0.02167545 0.0075093345 0.048567124 -0.011587664 -0.012745105 -0.0010863618 -0.029118856 -0.006348743
0.015181521 0.040895257 -0.05149653 0.045482893 0.041287854 -0.021192433 -0.0417249 -6.6935807e-34
0.017918866 0.009220346 -0.021759968 -0.02394299 0.03402043 -0.0147316335 -0.017132591 -0.026473762
0.028308306 0.050852723 -0.0085172895 0.007979268 -0.025408084 0.0023858226 -0.018186787 0.010032198
-0.03122462 0.02423698 -0.029560814 0.032933716 0.04585054 -0.008632318 -0.0007772387 0.06675748
-0.013721913 0.04206337 0.003854199 -0.012804516 0.05051507 0.0047105947 -0.029317979 0.040569123
0.014646051 0.029751543 0.02899184 0.011164836 0.010811012 -0.0060383636 -0.04304624 -0.004981901
0.003456229 0.0038838664 -0.0025388799 0.007880893 0.014517757 0.009809778 0.00075327937 -0.029305616
0.013781 -0.027324693 0.00537254 0.036140956 -0.009730737 -0.010292358 -0.0011540556 0.0038821688
-0.0285893 0.03619319 0.031183532 -0.009152809 -0.03149653 -0.015022329 -0.03075517 0.0068187513
-0.0068037855 -0.015095829 -0.038577046 0.017494304 -0.028184505 0.0003272796 0.030126171 0.00044756872
0.017955836 0.008667622 -0.054452173 -0.009945026 0.0004904319 0.010677202 0.021016087 -0.02453815
-0.02578841 -0.018898169 0.06548872 0.012171597 -0.005426908 -0.022914395 0.012000647 0.0011017288
-0.0051618447 0.023518305 -0.06694701 -0.020648077 0.02535913 0.023446424 -0.056896158 -1.7082626e-33
-0.019549467 -0.035986457 -0.03932331 0.0017749546 0.013592007 0.0016148778 0.00037397162 -0.0028895466
0.049767572 0.0058443067 -0.021797022 -0.02570202 0.018937299 0.047417037 0.02983005 -0.022007458
0.057921678 0.012286545 -0.03391755 0.029592734 -0.015838437 0.0076518715 -0.0377035 0.05122885
-0.020116072 0.031004641 0.07171691 -0.010748155 -0.0006328792 -0.014421394 -0.026639095 0.009811736
