analyse_fase-kenmerken_onderzoek/Engagement/modellen/topic-model-yt/ctfidf.safetensors (safetensors, 877868 bytes, 4 tensors)

data f8 [58594]
000000 81 bf e4 d7 5e e3 2b 3f 93 20 97 6e dd e3 20 3f
       0.0002127698207430272 0.0001288612177587951
000010 ef 95 dd 16 d7 7c 2c 3f a1 8f eb 21 87 ea 34 3f
       0.00021734357454332396 0.0003191547311145408
000020 93 20 97 6e dd e3 20 3f 93 20 97 6e dd e3 20 3f
       0.0001288612177587951 0.0001288612177587951
000030 93 20 97 6e dd e3 20 3f cc 83 b3 ae 9d 58 19 3f
       0.0001288612177587951 9.668791215090773e-05
000040 43 70 ce 8b 30 80 1f 3f 93 20 97 6e dd e3 20 3f
       0.00012016578962320647 0.0001288612177587951
000050 a4 b7 48 3f da 2a 2e 3f 67 b5 9e 97 91 ea 43 3f
       0.00023015894079619654 0.0006077967548116348
000060 43 70 ce 8b 30 80 2f 3f 89 9c d3 74 17 8e 2a 3f
       0.00024033157924641295 0.00020259891827054493
000070 27 e9 85 af ad 38 1d 3f bf 19 6f e7 45 8c 49 3f
       0.00011147079556464834 0.0007796613052669029
000080 93 20 97 6e dd e3 20 3f 43 70 ce 8b 30 80 1f 3f
       0.0001288612177587951 0.00012016578962320647
000090 3d e7 62 29 6b 9a 31 3f 89 9c d3 74 17 8e 2a 3f
       0.0002686034798774389 0.00020259891827054493
0000a0 81 bf e4 d7 5e e3 1b 3f b0 93 aa 98 6a 35 3a 3f
       0.0001063849103715136 0.0003999123806955286
0000b0 2e 58 e6 5b 7c 81 89 3f 74 1a 8e d5 d9 9c 53 3f
       0.012454005770262535 0.001197064140997431
0000c0 4e eb b1 41 9e 61 3b 3f 0d 6d 3b f2 5e f0 44 3f
       0.00041780580222166165 0.0006390060047708771
0000d0 51 34 d9 e1 8e 78 17 3f 93 20 97 6e dd e3 20 3f
       8.953449329247963e-05 0.0001288612177587951
0000e0 64 8a 23 59 02 3a 7d 3f 93 20 97 6e dd e3 20 3f
       0.007135399983072863 0.0001288612177587951
0000f0 84 6f 54 4f 5a e2 52 3f 93 20 97 6e dd e3 20 3f
       0.0011525995190088964 0.0001288612177587951
000100 2a ea 7e 6f bf 69 88 3f b0 93 aa 98 6a 35 1a 3f
       0.011920447912293037 9.997809517388215e-05
000110 5d 0e ff 04 81 e9 67 3f f6 cb 58 cd 6c 11 37 3f
       0.00291896056293854 0.00035199075987007945
000120 03 00 ae e1 33 e5 39 3f 93 20 97 6e dd e3 20 3f
       0.00039513126983337104 0.0001288612177587951
000130 8c 5c 04 16 c4 d6 40 3f a4 b7 48 3f da 2a 1e 3f
       0.0005138833476249368 0.00011507947039809827
000140 c5 89 e2 a8 77 58 40 3f 93 20 97 6e dd e3 20 3f
       0.0004988273883735286 0.0001288612177587951
000150 2c cf 74 57 75 1f 77 3f bc 03 04 9e 19 ae 4c 3f
       0.005645235410429977 0.0008752465328428698
000160 e3 0c e5 ab 40 1a 19 3f 7b 70 45 b1 36 89 34 3f
       9.575862620629957e-05 0.00031335435166624626
000170 93 20 97 6e dd e3 20 3f a1 8f eb 21 87 ea 44 3f
       0.0001288612177587951 0.0006383094622290816
000180 c5 c5 fa 5d 23 ee 37 3f 93 20 97 6e dd e3 20 3f
       0.00036514628844050114 0.0001288612177587951
000190 b0 93 aa 98 6a 35 1a 3f 43 70 ce 8b 30 80 1f 3f
       9.997809517388215e-05 0.00012016578962320647
0001a0 c5 c5 fa 5d 23 ee 37 3f 93 20 97 6e dd e3 20 3f
       0.00036514628844050114 0.0001288612177587951
0001b0 6e 49 34 ef f0 91 93 3f 43 70 ce 8b 30 80 2f 3f
       0.019111408805721757 0.00024033157924641295
0001c0 7c fd ce ee cf 65 51 3f 93 20 97 6e dd e3 20 3f
       0.0010618715852926666 0.0001288612177587951
0001d0 43 70 ce 8b 30 80 1f 3f a1 8f eb 21 87 ea 44 3f
       0.00012016578962320647 0.0006383094622290816
0001e0 7e 35 c6 a7 e0 76 38 3f 7e 35 c6 a7 e0 76 38 3f
       0.0003732965922374694 0.0003732965922374694
0001f0 7e 35 c6 a7 e0 76 38 3f a1 28 cf 23 4b 19 38 3f
       0.0003732965922374694 0.00036771854848594894
000200 f6 cb 58 cd 6c 11 37 3f 7e 35 c6 a7 e0 76 38 3f
       0.00035199075987007945 0.0003732965922374694
000210 a4 b7 48 3f da 2a 1e 3f 8e c1 62 78 93 b5 36 3f
       0.00011507947039809827 0.0003465161356741791
000220 7e 35 c6 a7 e0 76 38 3f 51 34 d9 e1 8e 78 37 3f
       0.0003732965922374694 0.00035813797316991853
000230 39 f1 ed 9a e3 a9 38 3f 7e 35 c6 a7 e0 76 38 3f
       0.0003763371159306753 0.0003732965922374694
000240 7e 35 c6 a7 e0 76 38 3f 4e eb b1 41 9e 61 1b 3f
       0.0003732965922374694 0.00010445145055541541
000250 27 e9 85 af ad 38 1d 3f 89 e8 b9 13 77 b6 41 3f
       0.00011147079556464834 0.0005405503683981887
000260 51 34 d9 e1 8e 78 27 3f 45 c7 d3 bc 39 f1 1a 3f
       0.00017906898658495926 0.00010277666952498734
000270 7e 35 c6 a7 e0 76 38 3f 7e 35 c6 a7 e0 76 38 3f
       0.0003732965922374694 0.0003732965922374694
000280 43 70 ce 8b 30 80 2f 3f 93 20 97 6e dd e3 20 3f
       0.00024033157924641295 0.0001288612177587951
000290 7e 35 c6 a7 e0 76 38 3f 78 98 f9 94 16 35 32 3f
       0.0003732965922374694 0.0002778225070642136
0002a0 7e 35 c6 a7 e0 76 38 3f 7e 35 c6 a7 e0 76 38 3f
       0.0003732965922374694 0.0003732965922374694
0002b0 50 a7 be 93 6a 32 37 3f 7e 35 c6 a7 e0 76 38 3f
       0.00035395719509755553 0.0003732965922374694
0002c0 a4 b7 48 3f da 2a 1e 3f e3 0c e5 ab 40 1a 29 3f
       0.00011507947039809827 0.00019151725241259914
0002d0 ec cf ab 56 6d 17 36 3f 89 9c d3 74 17 8e 1a 3f
       0.00033708972357193614 0.00010129945913527247
0002e0 ef d2 cf 15 9f 84 57 3f 45 c7 d3 bc 39 f1 1a 3f
       0.0014354280058316812 0.00010277666952498734
0002f0 8b 8d 20 11 c9 62 26 3f 27 e9 85 af ad 38 1d 3f
       0.0001707907145497119 0.00011147079556464834
000300 89 9c d3 74 17 8e 2a 3f 45 c7 d3 bc 39 f1 2a 3f
       0.00020259891827054493 0.00020555333904997468
000310 39 7c 36 e6 b7 18 4a 3f 7f 37 53 a6 81 ec 7d 3f
       0.0007964036889694998 0.007305628246468631
000320 1c 50 de d6 d0 60 3f 3f f3 68 12 6b 74 d5 3a 3f
       0.00047879313103149786 0.00040945141069816045
000330 f6 36 4d cc 70 c9 11 3f 62 28 fe cd f9 9b 29 3f
       6.78515526264209e-05 0.00019538330434115946
000340 93 20 97 6e dd e3 20 3f f1 e4 39 49 ee ac 55 3f
       0.0001288612177587951 0.0013229681980234077
000350 fa fb bb 1d 32 e0 28 3f 91 73 b9 ab d8 46 3b 3f
       0.00018978702325253544 0.0004162100774232564
000360 a4 b7 48 3f da 2a 1e 3f f2 71 7b 56 f8 62 3c 3f
       0.00011507947039809827 0.0004331451695927239
000370 39 f1 ed 9a e3 a9 38 3f 93 20 97 6e dd e3 20 3f
       0.0003763371159306753 0.0001288612177587951
000380 93 20 97 6e dd e3 20 3f b2 bb 2b c7 d7 c7 8c 3f
       0.0001288612177587951 0.014053045049392174
000390 65 81 4f 9a b2 56 3d 3f ec cf ab 56 6d 17 36 3f
       0.00044767246646239815 0.00033708972357193614
0003a0 7e 35 c6 a7 e0 76 38 3f 93 20 97 6e dd e3 20 3f
       0.0003732965922374694 0.0001288612177587951
0003b0 ec cf ab 56 6d 17 36 3f 7e 35 c6 a7 e0 76 38 3f
       0.00033708972357193614 0.0003732965922374694
0003c0 b1 f7 ee 46 1b 6e 41 3f 95 6e 61 15 2d 7d 61 3f
       0.000531924551857568 0.002134883931871399
0003d0 7e 35 c6 a7 e0 76 38 3f 7e 35 c6 a7 e0 76 38 3f
       0.0003732965922374694 0.0003732965922374694
0003e0 6b 67 41 3d 17 d3 36 3f 88 23 c7 17 17 c5 37 3f
       0.00034827535023894987 0.00036269964018891725
0003f0 7e 35 c6 a7 e0 76 38 3f 6d 05 18 90 cd 2f 46 3f
       0.0003732965922374694 0.0006770852780279398
000400 7e 35 c6 a7 e0 76 18 3f ad fc 5c 08 07 36 67 3f
       9.332414805936735e-05 0.002833379493409524
000410 17 a2 ce 2b 82 ca 59 3f 8f d3 f4 54 99 1e 40 3f
       0.0015741606905327382 0.0004919289293981876
000420 de 6e a4 43 82 ea 35 3f 18 e3 13 6b 39 84 88 3f
       0.00033441238669394506 0.011970947818996033
000430 93 20 97 6e dd e3 20 3f 93 20 97 6e dd e3 20 3f
       0.0001288612177587951 0.0001288612177587951
000440 a4 b7 48 3f da 2a 1e 3f 25 f4 d6 80 db 1c 5c 3f
       0.00011507947039809827 0.0017158645235746475
000450 b0 93 aa 98 6a 35 1a 3f c4 ee 7f f2 0f a8 33 3f
       9.997809517388215e-05 0.00029993428552164644
000460 62 28 fe cd f9 9b 49 3f 45 f4 89 64 b1 83 4c 3f
       0.0007815332173646378 0.0008701912093581696
000470 a4 b7 48 3f da 2a 2e 3f c1 88 e0 20 bd ff 15 3f
       0.00023015894079619654 8.391944740585284e-05
000480 80 b5 70 a2 94 58 56 3f a4 b7 48 3f da 2a 1e 3f
       0.0013638926991562383 0.00011507947039809827
000490 1c 50 de d6 d0 60 3f 3f 93 20 97 6e dd e3 20 3f
       0.00047879313103149786 0.0001288612177587951
0004a0 93 20 97 6e dd e3 20 3f f9 fa 2a a5 3e 18 3f 3f
       0.0001288612177587951 0.00047446755813133863
0004b0 ff f8 03 2a 54 3f 3c 3f c5 c5 fa 5d 23 ee 37 3f
       0.00043102078235780766 0.00036514628844050114
0004c0 fc fc 4c 96 25 a8 32 3f 89 4a 5b 1d 8b 02 62 3f
       0.0002846805348788032 0.002198478420589571
0004d0 7e 35 c6 a7 e0 76 38 3f 43 70 ce 8b 30 80 2f 3f
       0.0003732965922374694 0.00024033157924641295
0004e0 1d 83 82 4a 29 6a 44 3f b3 23 77 a2 2a 95 4a 3f
       0.000623006974837723 0.0008112390686899534
0004f0 27 e9 85 af ad 38 1d 3f 6d 05 18 90 cd 2f 56 3f
       0.00011147079556464834 0.0013541705560558795
000500 81 bf e4 d7 5e e3 1b 3f b0 93 aa 98 6a 35 3a 3f
       0.0001063849103715136 0.0003999123806955286
000510 45 c7 d3 bc 39 f1 1a 3f 7e 35 c6 a7 e0 76 38 3f
       0.00010277666952498734 0.0003732965922374694
000520 c5 c5 fa 5d 23 ee 37 3f b1 d8 1d f2 23 e7 64 3f
       0.00036514628844050114 0.0025516225877551747
000530 93 20 97 6e dd e3 20 3f a4 b7 48 3f da 2a 1e 3f
       0.0001288612177587951 0.00011507947039809827
000540 3d e7 62 29 6b 9a 41 3f f9 fa 2a a5 3e 18 3f 3f
       0.0005372069597548778 0.00047446755813133863
000550 31 cf 54 c9 9e 95 7d 3f d6 41 04 a9 ce 98 40 3f
       0.007222767123767502 0.0005064972956763624
000560 93 20 97 6e dd e3 20 3f a1 cd 36 2d e4 72 65 3f
       0.0001288612177587951 0.0026182610106048753
000570 b5 0d 49 88 74 1c 4b 3f 43 70 ce 8b 30 80 1f 3f
       0.0008273667340933851 0.00012016578962320647
000580 a4 b7 48 3f da 2a 1e 3f 8e c1 62 78 93 b5 36 3f
       0.00011507947039809827 0.0003465161356741791
000590 43 70 ce 8b 30 80 1f 3f 47 46 f2 04 c3 c6 63 3f
       0.00012016578962320647 0.0024141129466180053
0005a0 6a 9a a1 e3 07 91 6c 3f 93 e1 69 05 0f 86 60 3f
       0.003487124832690915 0.0020170491582655685
0005b0 cc 83 b3 ae 9d 58 29 3f 93 20 97 6e dd e3 20 3f
       0.00019337582430181547 0.0001288612177587951
0005c0 82 7e f5 1c fb 0e 74 3f a4 b7 48 3f da 2a 1e 3f
       0.004897099409702956 0.00011507947039809827
0005d0 2b 99 b2 9a 12 5f 74 3f 93 20 97 6e dd e3 20 3f
       0.00497348086643105 0.0001288612177587951
0005e0 02 80 42 e9 e6 6b 43 3f 93 20 97 6e dd e3 20 3f
       0.0005926969047500565 0.0001288612177587951
0005f0 54 9b 6a 53 c3 50 63 3f 4e eb b1 41 9e 61 1b 3f
       0.002357846732894778 0.00010445145055541541
000600 56 92 94 e3 61 de 81 3f 50 a7 be 93 6a 32 37 3f
       0.008724941976262428 0.00035395719509755553
000610 27 e9 85 af ad 38 1d 3f 7e 35 c6 a7 e0 76 38 3f
       0.00011147079556464834 0.0003732965922374694
000620 b0 93 aa 98 6a 35 1a 3f 85 c3 bf 72 a8 31 35 3f
       9.997809517388215e-05 0.0003233944178183057
000630 43 70 ce 8b 30 80 2f 3f 7e 35 c6 a7 e0 76 38 3f
       0.00024033157924641295 0.0003732965922374694
000640 7e 35 c6 a7 e0 76 38 3f 7e 35 c6 a7 e0 76 38 3f
       0.0003732965922374694 0.0003732965922374694
000650 7e 35 c6 a7 e0 76 38 3f 93 20 97 6e dd e3 20 3f
       0.0003732965922374694 0.0001288612177587951
000660 81 6a 04 61 4f 8c 4f 3f b3 23 77 a2 2a 95 3a 3f
       0.0009627711861271566 0.0004056195343449767
000670 4e eb b1 41 9e 61 1b 3f eb 57 c3 15 aa 45 6e 3f
       0.00010445145055541541 0.003695327946938489
000680 f1 db 00 01 92 91 30 3f 43 70 ce 8b 30 80 2f 3f
       0.0002528172926789521 0.00024033157924641295
000690 fb 1f e6 94 30 5b 54 3f 27 e9 85 af ad 38 3d 3f
       0.001242444460872959 0.00044588318225859336
0006a0 6b 7e 83 bd 02 12 5a 3f 02 80 42 e9 e6 6b 33 3f
       0.0015912081490156115 0.00029634845237502827
0006b0 a4 b7 48 3f da 2a 1e 3f c2 b5 ca 4a 6b 18 4c 3f
       0.00011507947039809827 0.0008574031722525177
0006c0 e3 0c e5 ab 40 1a 29 3f 7f d4 76 af dc ae 4b 3f
       0.00019151725241259914 0.0008448197904075276
0006d0 02 80 42 e9 e6 6b 33 3f 8e e9 c9 31 8a 6c 50 3f
       0.00029634845237502827 0.001002440410188574
0006e0 32 c7 9c 21 10 99 46 3f 03 00 ae e1 33 e5 19 3f
       0.0006896332517724922 9.878281745834276e-05
0006f0 f4 b7 40 77 17 6e 61 3f 57 c1 98 2b eb 09 7a 3f
       0.0021276911084191445 0.006357115396483279
000700 93 20 97 6e dd e3 20 3f a4 b7 48 3f da 2a 2e 3f
       0.0001288612177587951 0.00023015894079619654
000710 7d e7 1f dc 97 f4 68 3f c1 88 e0 20 bd ff 25 3f
       0.003046318627636545 0.00016783889481170568
000720 76 40 85 2a 65 2b 5d 3f ef 95 dd 16 d7 7c 2c 3f
       0.0017803657484201352 0.00021734357454332396
000730 66 95 35 19 cc f2 50 3f 3d e7 62 29 6b 9a 41 3f
       0.0010344498776587384 0.0005372069597548778
000740 8b 8d 20 11 c9 62 26 3f 47 6b 68 96 f8 f6 45 3f
       0.0001707907145497119 0.000670310383444097
000750 a4 b7 48 3f da 2a 1e 3f a4 b7 48 3f da 2a 2e 3f
       0.00011507947039809827 0.00023015894079619654
000760 6d 6f e8 76 86 6e 50 3f 2f 39 2f e5 d0 08 81 3f
       0.0010029137735107733 0.00831759642997251
000770 7e 35 c6 a7 e0 76 38 3f fc fc 4c 96 25 a8 32 3f
       0.0003732965922374694 0.0002846805348788032
000780 7e 35 c6 a7 e0 76 38 3f 0c 36 4d 1a f4 9d 37 3f
       0.0003732965922374694 0.0003603669122654591
000790 7e 35 c6 a7 e0 76 38 3f 7e 35 c6 a7 e0 76 38 3f
       0.0003732965922374694 0.0003732965922374694
0007a0 cc 83 b3 ae 9d 58 39 3f 7e 35 c6 a7 e0 76 38 3f
       0.00038675164860363094 0.0003732965922374694
0007b0 7e 35 c6 a7 e0 76 38 3f 7e 35 c6 a7 e0 76 38 3f
       0.0003732965922374694 0.0003732965922374694
0007c0 63 7f 06 20 58 00 2f 3f 00 d4 81 d0 e4 ea 49 3f
       0.00023652148958052806 0.0007909409769256692
0007d0 a1 28 cf 23 4b 19 38 3f 8e c1 62 78 93 b5 16 3f
       0.00036771854848594894 8.662903391854477e-05
0007e0 62 28 fe cd f9 9b 49 3f 62 28 fe cd f9 9b 19 3f
       0.0007815332173646378 9.769165217057973e-05
0007f0 cc 83 b3 ae 9d 58 19 3f aa 07 2b 01 5f af 2f 3f
       9.668791215090773e-05 0.00024173769687335411

diag f8 [21788]
000000 ef bf f6 e1 90 ab 13 40 71 fa e6 ad ca 6c 15 40
       4.917544871030244 5.356241910193249
000010 10 34 a8 ac 05 8b 24 40 10 34 a8 ac 05 8b 24 40
       10.271527667553556 10.271527667553556
000020 10 34 a8 ac 05 8b 24 40 b5 10 01 e8 4a c5 21 40
       10.271527667553556 8.88533711445812
000030 10 34 a8 ac 05 8b 24 40 10 34 a8 ac 05 8b 24 40
       10.271527667553556 10.271527667553556
000040 6f fc c4 55 2f 26 20 40 17 90 d5 05 26 28 23 40
       8.074579887672568 9.578415090865787
000050 10 34 a8 ac 05 8b 24 40 66 2d 66 d3 ec 9e 1b 40
       10.271527667553556 6.905200293647203
000060 62 66 f9 be e3 25 1f 40 10 34 a8 ac 05 8b 24 40
       7.78700159451691 10.271527667553556
000070 17 90 d5 05 26 28 23 40 10 34 a8 ac 05 8b 24 40
       9.578415090865787 10.271527667553556
000080 10 34 a8 ac 05 8b 24 40 e7 3f 37 30 f4 7e 1f 40
       10.271527667553556 7.873978379604501
000090 57 50 58 bd 1b b8 16 40 10 34 a8 ac 05 8b 24 40
       5.679793318286179 10.271527667553556
0000a0 9e 1c 12 85 8e f4 19 40 10 34 a8 ac 05 8b 24 40
       6.488824919920402 10.271527667553556
0000b0 10 34 a8 ac 05 8b 24 40 10 34 a8 ac 05 8b 24 40
       10.271527667553556 10.271527667553556
0000c0 10 34 a8 ac 05 8b 24 40 10 34 a8 ac 05 8b 24 40
       10.271527667553556 10.271527667553556
0000d0 ca 7a 57 63 77 8a 1a 40 f0 18 41 df 1b c7 19 40
       6.635221054281553 6.444442261074286
0000e0 10 34 a8 ac 05 8b 24 40 17 90 d5 05 26 28 23 40
       10.271527667553556 9.578415090865787
0000f0 10 34 a8 ac 05 8b 24 40 80 58 0a 78 ae da 15 40
       10.271527667553556 5.463556171065761
000100 17 90 d5 05 26 28 23 40 f0 18 41 df 1b c7 19 40
       9.578415090865787 6.444442261074286
000110 b5 10 01 e8 4a c5 21 40 10 34 a8 ac 05 8b 24 40
       8.88533711445812 10.271527667553556
000120 e6 49 82 6f 91 58 22 40 9e 27 e5 34 b4 5a 1b 40
       9.172984585432413 6.838578058706757
000130 10 34 a8 ac 05 8b 24 40 12 78 de 34 1f b1 19 40
       10.271527667553556 6.422970605925018
000140 10 34 a8 ac 05 8b 24 40 6f e6 36 21 e7 6f 1a 40
       10.271527667553556 6.609280127502287
000150 10 34 a8 ac 05 8b 24 40 18 a2 f5 8c d2 a6 20 40
       10.271527667553556 8.325825123772162
000160 10 34 a8 ac 05 8b 24 40 10 34 a8 ac 05 8b 24 40
       10.271527667553556 10.271527667553556
000170 10 34 a8 ac 05 8b 24 40 18 a2 f5 8c d2 a6 20 40
       10.271527667553556 8.325825123772162
000180 10 34 a8 ac 05 8b 24 40 10 34 a8 ac 05 8b 24 40
       10.271527667553556 10.271527667553556
000190 10 34 a8 ac 05 8b 24 40 10 34 a8 ac 05 8b 24 40
       10.271527667553556 10.271527667553556
0001a0 10 34 a8 ac 05 8b 24 40 e6 49 82 6f 91 58 22 40
       10.271527667553556 9.172984585432413
0001b0 10 34 a8 ac 05 8b 24 40 df de eb 17 19 5a 12 40
       10.271527667553556 4.587986348887823
0001c0 9e 1c 12 85 8e f4 19 40 17 90 d5 05 26 28 23 40
       6.488824919920402 9.578415090865787
0001d0 10 34 a8 ac 05 8b 24 40 10 34 a8 ac 05 8b 24 40
       10.271527667553556 10.271527667553556
0001e0 10 34 a8 ac 05 8b 24 40 10 34 a8 ac 05 8b 24 40
       10.271527667553556 10.271527667553556
0001f0 10 34 a8 ac 05 8b 24 40 10 34 a8 ac 05 8b 24 40
       10.271527667553556 10.271527667553556
000200 17 90 d5 05 26 28 23 40 10 34 a8 ac 05 8b 24 40
       9.578415090865787 10.271527667553556
000210 10 34 a8 ac 05 8b 24 40 17 90 d5 05 26 28 23 40
       10.271527667553556 9.578415090865787
000220 10 34 a8 ac 05 8b 24 40 17 90 d5 05 26 28 23 40
       10.271527667553556 9.578415090865787
000230 10 34 a8 ac 05 8b 24 40 e6 49 82 6f 91 58 22 40
       10.271527667553556 9.172984585432413
000240 41 cb e0 91 0f 53 21 40 10 34 a8 ac 05 8b 24 40
       8.662228163424176 10.271527667553556
000250 10 34 a8 ac 05 8b 24 40 17 90 d5 05 26 28 23 40
       10.271527667553556 9.578415090865787
000260 10 34 a8 ac 05 8b 24 40 07 3b 22 19 f6 d3 1e 40
       10.271527667553556 7.706993477548855
000270 10 34 a8 ac 05 8b 24 40 10 34 a8 ac 05 8b 24 40
       10.271527667553556 10.271527667553556
000280 10 34 a8 ac 05 8b 24 40 62 66 f9 be e3 25 1f 40
       10.271527667553556 7.78700159451691
000290 ae 8c 70 6e 92 de 1a 40 10 34 a8 ac 05 8b 24 40
       6.7173554664797575 10.271527667553556
0002a0 10 34 a8 ac 05 8b 24 40 10 34 a8 ac 05 8b 24 40
       10.271527667553556 10.271527667553556
0002b0 10 34 a8 ac 05 8b 24 40 e6 49 82 6f 91 58 22 40
       10.271527667553556 9.172984585432413
0002c0 52 15 8d da ba f5 20 40 01 7f 18 4f ff 3b 17 40
       8.479941205713349 5.80859111392033
0002d0 10 34 a8 ac 05 8b 24 40 07 3b 22 19 f6 d3 1e 40
       10.271527667553556 7.706993477548855
0002e0 17 90 d5 05 26 28 23 40 10 34 a8 ac 05 8b 24 40
       9.578415090865787 10.271527667553556
0002f0 a7 f2 f2 bd d2 c2 1b 40 10 34 a8 ac 05 8b 24 40
       6.940257041886674 10.271527667553556
000300 10 34 a8 ac 05 8b 24 40 47 91 be 9e f5 45 14 40
       10.271527667553556 5.068319778806035
000310 10 34 a8 ac 05 8b 24 40 10 34 a8 ac 05 8b 24 40
       10.271527667553556 10.271527667553556
000320 6a f3 c9 e2 71 ff 1d 40 10 34 a8 ac 05 8b 24 40
       7.499457877708531 10.271527667553556
000330 41 cb e0 91 0f 53 21 40 10 34 a8 ac 05 8b 24 40
       8.662228163424176 10.271527667553556
000340 10 34 a8 ac 05 8b 24 40 10 34 a8 ac 05 8b 24 40
       10.271527667553556 10.271527667553556
000350 10 34 a8 ac 05 8b 24 40 10 34 a8 ac 05 8b 24 40
       10.271527667553556 10.271527667553556
000360 10 34 a8 ac 05 8b 24 40 49 a7 5d 6c 29 e9 1c 40
       10.271527667553556 7.227697079864648
000370 10 34 a8 ac 05 8b 24 40 17 90 d5 05 26 28 23 40
       10.271527667553556 9.578415090865787
000380 10 34 a8 ac 05 8b 24 40 10 34 a8 ac 05 8b 24 40
       10.271527667553556 10.271527667553556
000390 17 90 d5 05 26 28 23 40 10 34 a8 ac 05 8b 24 40
       9.578415090865787 10.271527667553556
0003a0 10 34 a8 ac 05 8b 24 40 10 34 a8 ac 05 8b 24 40
       10.271527667553556 10.271527667553556
0003b0 10 34 a8 ac 05 8b 24 40 10 34 a8 ac 05 8b 24 40
       10.271527667553556 10.271527667553556
0003c0 52 15 8d da ba f5 20 40 e8 d5 a2 89 3a 3a 1b 40
       8.479941205713349 6.8068639283787675
0003d0 52 15 8d da ba f5 20 40 10 34 a8 ac 05 8b 24 40
       8.479941205713349 10.271527667553556
0003e0 01 b8 18 3d 07 e8 1b 40 3f df f0 0e 07 c6 17 40
       6.976590113290514 5.943386300517715
0003f0 52 15 8d da ba f5 20 40 10 34 a8 ac 05 8b 24 40
       8.479941205713349 10.271527667553556
000400 10 34 a8 ac 05 8b 24 40 10 34 a8 ac 05 8b 24 40
       10.271527667553556 10.271527667553556
000410 10 34 a8 ac 05 8b 24 40 17 90 d5 05 26 28 23 40
       10.271527667553556 9.578415090865787
000420 10 34 a8 ac 05 8b 24 40 b5 10 01 e8 4a c5 21 40
       10.271527667553556 8.88533711445812
000430 10 34 a8 ac 05 8b 24 40 10 34 a8 ac 05 8b 24 40
       10.271527667553556 10.271527667553556
000440 10 34 a8 ac 05 8b 24 40 10 34 a8 ac 05 8b 24 40
       10.271527667553556 10.271527667553556
000450 52 15 8d da ba f5 20 40 41 cb e0 91 0f 53 21 40
       8.479941205713349 8.662228163424176
000460 10 34 a8 ac 05 8b 24 40 17 90 d5 05 26 28 23 40
       10.271527667553556 9.578415090865787
000470 8f 8c a2 c8 af 92 15 40 52 15 8d da ba f5 20 40
       5.3932486867153235 8.479941205713349
000480 10 34 a8 ac 05 8b 24 40 10 34 a8 ac 05 8b 24 40
       10.271527667553556 10.271527667553556
000490 10 34 a8 ac 05 8b 24 40 17 90 d5 05 26 28 23 40
       10.271527667553556 9.578415090865787
0004a0 10 34 a8 ac 05 8b 24 40 10 34 a8 ac 05 8b 24 40
       10.271527667553556 10.271527667553556
0004b0 e6 49 82 6f 91 58 22 40 10 34 a8 ac 05 8b 24 40
       9.172984585432413 10.271527667553556
0004c0 10 34 a8 ac 05 8b 24 40 10 34 a8 ac 05 8b 24 40
       10.271527667553556 10.271527667553556
0004d0 10 34 a8 ac 05 8b 24 40 17 90 d5 05 26 28 23 40
       10.271527667553556 9.578415090865787
0004e0 10 34 a8 ac 05 8b 24 40 10 34 a8 ac 05 8b 24 40
       10.271527667553556 10.271527667553556
0004f0 10 34 a8 ac 05 8b 24 40 10 34 a8 ac 05 8b 24 40
       10.271527667553556 10.271527667553556
000500 10 34 a8 ac 05 8b 24 40 e6 49 82 6f 91 58 22 40
       10.271527667553556 9.172984585432413
000510 17 90 d5 05 26 28 23 40 41 cb e0 91 0f 53 21 40
       9.578415090865787 8.662228163424176
000520 10 34 a8 ac 05 8b 24 40 10 34 a8 ac 05 8b 24 40
       10.271527667553556 10.271527667553556
000530 29 e5 07 e7 e7 86 1d 40 17 90 d5 05 26 28 23 40
       7.381744012696154 9.578415090865787
000540 2c 58 5e 22 2b da 18 40 e6 49 82 6f 91 58 22 40
       6.2130551691134706 9.172984585432413
000550 e6 49 82 6f 91 58 22 40 10 34 a8 ac 05 8b 24 40
       9.172984585432413 10.271527667553556
000560 17 90 d5 05 26 28 23 40 10 34 a8 ac 05 8b 24 40
       9.578415090865787 10.271527667553556
000570 10 34 a8 ac 05 8b 24 40 0d 48 9b 1c 84 e0 1f 40
       10.271527667553556 7.969253966310146
000580 10 34 a8 ac 05 8b 24 40 10 34 a8 ac 05 8b 24 40
       10.271527667553556 10.271527667553556
000590 10 34 a8 ac 05 8b 24 40 9b f6 9a 04 a5 91 17 40
       10.271527667553556 5.892231056173524
0005a0 6c 4e cc db 78 62 20 40 e6 49 82 6f 91 58 22 40
       8.19232832783674 9.172984585432413
0005b0 10 34 a8 ac 05 8b 24 40 10 34 a8 ac 05 8b 24 40
       10.271527667553556 10.271527667553556
0005c0 17 90 d5 05 26 28 23 40 10 34 a8 ac 05 8b 24 40
       9.578415090865787 10.271527667553556
0005d0 10 34 a8 ac 05 8b 24 40 10 34 a8 ac 05 8b 24 40
       10.271527667553556 10.271527667553556
0005e0 10 34 a8 ac 05 8b 24 40 10 34 a8 ac 05 8b 24 40
       10.271527667553556 10.271527667553556
0005f0 10 34 a8 ac 05 8b 24 40 10 34 a8 ac 05 8b 24 40
       10.271527667553556 10.271527667553556
000600 10 34 a8 ac 05 8b 24 40 e6 49 82 6f 91 58 22 40
       10.271527667553556 9.172984585432413
000610 ed ac f9 50 c3 3c 1a 40 10 34 a8 ac 05 8b 24 40
       6.559338822592719 10.271527667553556
000620 10 34 a8 ac 05 8b 24 40 10 34 a8 ac 05 8b 24 40
       10.271527667553556 10.271527667553556
000630 e6 49 82 6f 91 58 22 40 10 34 a8 ac 05 8b 24 40
       9.172984585432413 10.271527667553556
000640 6c 4e cc db 78 62 20 40 41 cb e0 91 0f 53 21 40
       8.19232832783674 8.662228163424176
000650 10 34 a8 ac 05 8b 24 40 10 34 a8 ac 05 8b 24 40
       10.271527667553556 10.271527667553556
000660 10 34 a8 ac 05 8b 24 40 92 3e bb 42 ab 85 18 40
       10.271527667553556 6.13053612010812
000670 18 a2 f5 8c d2 a6 20 40 10 34 a8 ac 05 8b 24 40
       8.325825123772162 10.271527667553556
000680 10 34 a8 ac 05 8b 24 40 10 34 a8 ac 05 8b 24 40
       10.271527667553556 10.271527667553556
000690 17 90 d5 05 26 28 23 40 17 90 d5 05 26 28 23 40
       9.578415090865787 9.578415090865787
0006a0 10 34 a8 ac 05 8b 24 40 10 34 a8 ac 05 8b 24 40
       10.271527667553556 10.271527667553556
0006b0 10 34 a8 ac 05 8b 24 40 10 34 a8 ac 05 8b 24 40
       10.271527667553556 10.271527667553556
0006c0 10 34 a8 ac 05 8b 24 40 10 34 a8 ac 05 8b 24 40
       10.271527667553556 10.271527667553556
0006d0 17 90 d5 05 26 28 23 40 17 90 d5 05 26 28 23 40
       9.578415090865787 9.578415090865787
0006e0 10 34 a8 ac 05 8b 24 40 10 34 a8 ac 05 8b 24 40
       10.271527667553556 10.271527667553556
0006f0 10 34 a8 ac 05 8b 24 40 10 34 a8 ac 05 8b 24 40
       10.271527667553556 10.271527667553556
000700 10 34 a8 ac 05 8b 24 40 10 34 a8 ac 05 8b 24 40
       10.271527667553556 10.271527667553556
000710 17 90 d5 05 26 28 23 40 10 34 a8 ac 05 8b 24 40
       9.578415090865787 10.271527667553556
000720 10 34 a8 ac 05 8b 24 40 10 34 a8 ac 05 8b 24 40
       10.271527667553556 10.271527667553556
000730 10 34 a8 ac 05 8b 24 40 10 34 a8 ac 05 8b 24 40
       10.271527667553556 10.271527667553556
000740 17 90 d5 05 26 28 23 40 6b b7 75 40 b1 f0 13 40
       9.578415090865787 4.985051161942333
000750 17 90 d5 05 26 28 23 40 10 34 a8 ac 05 8b 24 40
       9.578415090865787 10.271527667553556
000760 10 34 a8 ac 05 8b 24 40 10 34 a8 ac 05 8b 24 40
       10.271527667553556 10.271527667553556
000770 10 34 a8 ac 05 8b 24 40 10 34 a8 ac 05 8b 24 40
       10.271527667553556 10.271527667553556
000780 10 34 a8 ac 05 8b 24 40 10 34 a8 ac 05 8b 24 40
       10.271527667553556 10.271527667553556
000790 17 90 d5 05 26 28 23 40 10 34 a8 ac 05 8b 24 40
       9.578415090865787 10.271527667553556
0007a0 10 34 a8 ac 05 8b 24 40 10 34 a8 ac 05 8b 24 40
       10.271527667553556 10.271527667553556
0007b0 10 34 a8 ac 05 8b 24 40 10 34 a8 ac 05 8b 24 40
       10.271527667553556 10.271527667553556
0007c0 10 34 a8 ac 05 8b 24 40 10 34 a8 ac 05 8b 24 40
       10.271527667553556 10.271527667553556
0007d0 10 34 a8 ac 05 8b 24 40 10 34 a8 ac 05 8b 24 40
       10.271527667553556 10.271527667553556
0007e0 10 34 a8 ac 05 8b 24 40 10 34 a8 ac 05 8b 24 40
       10.271527667553556 10.271527667553556
0007f0 10 34 a8 ac 05 8b 24 40 10 34 a8 ac 05 8b 24 40
       10.271527667553556 10.271527667553556

indices i4 [58594]
000000 f5 53 00 00 f1 53 00 00 d9 53 00 00 d3 53 00 00
       21493 21489 21465 21459
000010 d1 53 00 00 bb 53 00 00 b1 53 00 00 b0 53 00 00
       21457 21435 21425 21424
000020 aa 53 00 00 a6 53 00 00 a5 53 00 00 a4 53 00 00
       21418 21414 21413 21412
000030 96 53 00 00 7f 53 00 00 79 53 00 00 75 53 00 00
       21398 21375 21369 21365
000040 70 53 00 00 6b 53 00 00 6a 53 00 00 68 53 00 00
       21360 21355 21354 21352
000050 67 53 00 00 66 53 00 00 60 53 00 00 5f 53 00 00
       21351 21350 21344 21343
000060 5e 53 00 00 5c 53 00 00 5b 53 00 00 5a 53 00 00
       21342 21340 21339 21338
000070 57 53 00 00 55 53 00 00 53 53 00 00 52 53 00 00
       21335 21333 21331 21330
000080 51 53 00 00 4f 53 00 00 4d 53 00 00 3b 53 00 00
       21329 21327 21325 21307
000090 3a 53 00 00 37 53 00 00 34 53 00 00 32 53 00 00
       21306 21303 21300 21298
0000a0 2f 53 00 00 2e 53 00 00 2d 53 00 00 2a 53 00 00
       21295 21294 21293 21290
0000b0 29 53 00 00 28 53 00 00 26 53 00 00 18 53 00 00
       21289 21288 21286 21272
0000c0 16 53 00 00 11 53 00 00 0c 53 00 00 05 53 00 00
       21270 21265 21260 21253
0000d0 f6 52 00 00 f1 52 00 00 ee 52 00 00 ed 52 00 00
       21238 21233 21230 21229
0000e0 ec 52 00 00 e7 52 00 00 e5 52 00 00 e4 52 00 00
       21228 21223 21221 21220
0000f0 e2 52 00 00 e1 52 00 00 de 52 00 00 dc 52 00 00
       21218 21217 21214 21212
000100 da 52 00 00 d7 52 00 00 d6 52 00 00 d2 52 00 00
       21210 21207 21206 21202
000110 d1 52 00 00 cf 52 00 00 cc 52 00 00 cb 52 00 00
       21201 21199 21196 21195
000120 ca 52 00 00 c3 52 00 00 c0 52 00 00 be 52 00 00
       21194 21187 21184 21182
000130 bc 52 00 00 ba 52 00 00 b5 52 00 00 b4 52 00 00
       21180 21178 21173 21172
000140 b3 52 00 00 b0 52 00 00 a1 52 00 00 a0 52 00 00
       21171 21168 21153 21152
000150 9e 52 00 00 9d 52 00 00 9a 52 00 00 99 52 00 00
       21150 21149 21146 21145
000160 93 52 00 00 92 52 00 00 90 52 00 00 8f 52 00 00
       21139 21138 21136 21135
000170 8d 52 00 00 8b 52 00 00 8a 52 00 00 88 52 00 00
       21133 21131 21130 21128
000180 85 52 00 00 81 52 00 00 80 52 00 00 7e 52 00 00
       21125 21121 21120 21118
000190 7b 52 00 00 72 52 00 00 6f 52 00 00 6d 52 00 00
       21115 21106 21103 21101
0001a0 6c 52 00 00 6b 52 00 00 68 52 00 00 66 52 00 00
       21100 21099 21096 21094
0001b0 62 52 00 00 54 52 00 00 53 52 00 00 52 52 00 00
       21090 21076 21075 21074
0001c0 50 52 00 00 4f 52 00 00 4c 52 00 00 44 52 00 00
       21072 21071 21068 21060
0001d0 43 52 00 00 3c 52 00 00 3a 52 00 00 39 52 00 00
       21059 21052 21050 21049
0001e0 37 52 00 00 36 52 00 00 31 52 00 00 30 52 00 00
       21047 21046 21041 21040
0001f0 2e 52 00 00 2b 52 00 00 2a 52 00 00 25 52 00 00
       21038 21035 21034 21029
000200 24 52 00 00 23 52 00 00 22 52 00 00 21 52 00 00
       21028 21027 21026 21025
000210 1d 52 00 00 1c 52 00 00 18 52 00 00 16 52 00 00
       21021 21020 21016 21014
000220 15 52 00 00 14 52 00 00 13 52 00 00 11 52 00 00
       21013 21012 21011 21009
000230 0d 52 00 00 0c 52 00 00 0b 52 00 00 02 52 00 00
       21005 21004 21003 20994
000240 ff 51 00 00 fd 51 00 00 fb 51 00 00 fa 51 00 00
       20991 20989 20987 20986
000250 f8 51 00 00 f6 51 00 00 f5 51 00 00 f1 51 00 00
       20984 20982 20981 20977
000260 e7 51 00 00 e5 51 00 00 e4 51 00 00 e3 51 00 00
       20967 20965 20964 20963
000270 d6 51 00 00 d0 51 00 00 ce 51 00 00 cc 51 00 00
       20950 20944 20942 20940
000280 cb 51 00 00 ca 51 00 00 c9 51 00 00 c7 51 00 00
       20939 20938 20937 20935
000290 c6 51 00 00 c4 51 00 00 c3 51 00 00 c2 51 00 00
       20934 20932 20931 20930
0002a0 c1 51 00 00 bc 51 00 00 ba 51 00 00 b8 51 00 00
       20929 20924 20922 20920
0002b0 b3 51 00 00 ae 51 00 00 ad 51 00 00 ab 51 00 00
       20915 20910 20909 20907
0002c0 a7 51 00 00 a6 51 00 00 a3 51 00 00 a2 51 00 00
       20903 20902 20899 20898
0002d0 a1 51 00 00 a0 51 00 00 9f 51 00 00 9d 51 00 00
       20897 20896 20895 20893
0002e0 9b 51 00 00 9a 51 00 00 99 51 00 00 97 51 00 00
       20891 20890 20889 20887
0002f0 96 51 00 00 93 51 00 00 92 51 00 00 90 51 00 00
       20886 20883 20882 20880
000300 8d 51 00 00 89 51 00 00 87 51 00 00 84 51 00 00
       20877 20873 20871 20868
000310 81 51 00 00 7f 51 00 00 7e 51 00 00 7a 51 00 00
       20865 20863 20862 20858
000320 79 51 00 00 75 51 00 00 72 51 00 00 6c 51 00 00
       20857 20853 20850 20844
000330 6a 51 00 00 66 51 00 00 60 51 00 00 5f 51 00 00
       20842 20838 20832 20831
000340 5a 51 00 00 58 51 00 00 55 51 00 00 54 51 00 00
       20826 20824 20821 20820
000350 50 51 00 00 49 51 00 00 46 51 00 00 3e 51 00 00
       20816 20809 20806 20798
000360 3d 51 00 00 3b 51 00 00 39 51 00 00 38 51 00 00
       20797 20795 20793 20792
000370 37 51 00 00 36 51 00 00 35 51 00 00 31 51 00 00
       20791 20790 20789 20785
000380 2f 51 00 00 2e 51 00 00 2a 51 00 00 23 51 00 00
       20783 20782 20778 20771
000390 21 51 00 00 1d 51 00 00 1c 51 00 00 1b 51 00 00
       20769 20765 20764 20763
0003a0 1a 51 00 00 18 51 00 00 17 51 00 00 16 51 00 00
       20762 20760 20759 20758
0003b0 15 51 00 00 12 51 00 00 0f 51 00 00 0e 51 00 00
       20757 20754 20751 20750
0003c0 0c 51 00 00 06 51 00 00 05 51 00 00 04 51 00 00
       20748 20742 20741 20740
0003d0 03 51 00 00 00 51 00 00 ff 50 00 00 fe 50 00 00
       20739 20736 20735 20734
0003e0 fc 50 00 00 fa 50 00 00 f6 50 00 00 e6 50 00 00
       20732 20730 20726 20710
0003f0 e3 50 00 00 e2 50 00 00 e1 50 00 00 df 50 00 00
       20707 20706 20705 20703

indptr i4 [17]
000000 00 00 00 00 0a 1b 00 00 36 2c 00 00 14 3a 00 00
       0 6922 11318 14868
000010 4b 50 00 00 76 64 00 00 25 7a 00 00 07 81 00 00
       20555 25718 31269 33031
000020 76 8d 00 00 bf 9f 00 00 8e ae 00 00 ab bd 00 00
       36214 40895 44686 48555
000030 1c c5 00 00 ab ce 00 00 42 d8 00 00 cd dd 00 00
       50460 52907 55362 56781
000040 e2 e4 00 00
       58594
