analyse_fase-kenmerken_onderzoek/Engagement/modellen/topic-model-yt/topic_embeddings.safetensors (safetensors, 26200 bytes, 1 tensors)

topic_embeddings f4 [17, 384]
00000000: df9a cabc 737d a73a 3473 953b f6f1 353c
00000010: 9ebc b53d b810 5b3c 3a58 f43c 497b dabc
00000020: 09cb 84bb 911a 7b3c 7341 e33c cb41 f13c
00000030: f74e 883c bcbe c0bb a7af 1eb9 77ac 633c
00000040: fec1 de3c e94c febc adac 4bbd dc8c 17bc
00000050: eac3 52bc 5783 b3bc a6f1 983c c5a2 8b3b
00000060: 8035 70bc 81d6 693d a9fc efbb b778 fcbb
00000070: e01c 91bb b233 d83c 00ed ea3c d8d4 283c
00000080: 0dfd 6dba 8640 243d 8839 383d 9e4d 0dbd
00000090: 33c5 883d d63c 9ebc d52d cd3c 5e35 f53c
000000a0: 3464 693d b4fb 2fbd 3cc9 f43c 8cb1 a8bc
000000b0: e4dd bfbc 55b7 a73b 5f5a b9bb d0f1 b13b
000000c0: 5e56 b83a 5dcb 0abd 7d12 2fbd 4be8 8bbc
000000d0: f6f5 703c 3e72 c33c ccd1 03bc 75c7 08bd
000000e0: e958 34bb 821b 4fbb 4f66 d13c 2dd3 823c
000000f0: 7295 5b3c 468a 5539 ab1c 633b a2b5 043d
00000100: 61f5 1fbc a554 803b f10d 44bd 585e 60bc
00000110: 1ad2 443d 4d51 2abc d8c5 833d 5b3c 113d
00000120: e6bd 8ebc 6925 febb 4cf3 9ebb 3eb7 84bc
00000130: 4d8b 243c 3890 713c c2e2 223c 88eb fcbc
00000140: ed2c 693d 80a8 b3bd 98e4 b73c b9fe d8bb
00000150: 7555 0fbd 2cde f0bc 87cd 62bc 2846 0fbc
00000160: 00ad ca3c fdf2 ec39 4593 29bd 2245 4f3d
00000170: be42 0d3d 5495 cdbc 1823 82bc c9c6 52bb
00000180: 3862 6bbc 6c2a 653c 8d68 a3bd 4355 2f3d
00000190: f035 d03b c893 123b 6ac1 01bd 8792 1abd
000001a0: 5603 343c 8176 65bd 2142 94bb 3d07 5dbc
000001b0: 8eb7 1bbd a372 0f3d 0f75 243d c350 003b
000001c0: aa57 1cbd eaed 973b 1163 363d 88ec 34bc
000001d0: 40c6 21bc 52ac 613c da1c 97bc 8c8d b3bc
000001e0: 4c39 a13c 57cd fb3c d146 93bd 1e2c b73c
000001f0: 9b92 533d 21c2 8139 0dd0 f4bc 7131 4109
00000200: bb7f 013d 081d b23c 6fdf 18bd 92b3 d2bc
00000210: ddc8 573d 6492 d538 9f7f 5abc 16cd 14bd
00000220: 515c ca3c bab2 293d 952f 81bc d332 2e3c
00000230: babb 83bc 7fff 8ebc 6679 0fbd a0b4 03bc
00000240: 0600 1ebd c580 f93b 1fa4 3ebd fc82 623d
00000250: 28e5 6b3d 6906 c6bc 4444 d8bc bdd3 733d
00000260: 119b e6bc 10da 483d 9377 ba3c fdb2 dbbb
00000270: 5d18 4b3d c820 4c3c 0dcf 8abd 6659 4f3d
00000280: 987d 1c3d 2e0e ec3c e662 483d bc8c 213c
00000290: f24c 5fba b1fc afbc d658 2cbd 3833 76bc
000002a0: 9971 b6bc de69 9a3a ae9d e0bb 5dec 813c
000002b0: c662 f7ba 8482 8f3c 0606 c6bc 32ce 3abd
000002c0: ecb5 ea3c ea48 1abd ad60 c43b 6405 123d
000002d0: dcac b7bc faf0 83bc d819 53bc 970d bc3c
000002e0: 65e0 91bc 4f01 de3c 174d 4a3d 16c3 e33b
000002f0: 83e6 2ebc 3624 82bb f758 dfbc 28a3 963b
00000300: 63ba d139 9307 3abd f637 f6bc 8457 a63c
00000310: 7aa1 4bbc f607 cc3b 49c3 133d 8465 153c
00000320: 7d42 283d 7245 793c a9e1 5abd 987a 0a3c
00000330: a3af 70bc ad92 733c e6d0 233c b64c 66bb
00000340: d124 01bc 15a4 4abd b5ac 863d e5c4 bf3b
00000350: 5ebf 22bc 0269 d4bc 5203 f23b 40ad bebc
00000360: 7666 2bbc b142 433d 952d 6ebd 061d 21bc
00000370: 609e b23c 59d9 9a3c 26f9 4fbd 3dea b089
00000380: b82e 07bc dcba adbc 0bf2 2abd d01b 82bc
00000390: 41c2 c03b ea27 7abc 7040 393c 6ac5 b63c
000003a0: 38d2 a93d 4e70 2abc 4504 e7bc 5e3f 49bd
000003b0: fb5e 87bb c889 3f3d ee87 7d3a ceee f6bc
000003c0: 6316 963d 7ca7 283c bd8b 15bd 24b7 1b3d
000003d0: cdba e5bb d4cc 95bb 5775 5abd aa39 703d
000003e0: 29cd 4fbb 8b82 e43c a18f b13d a0bf 833c
000003f0: d97d afbc 0b6f 7cbc 2cee 15bd 9ff1 b4bb
-0.024732051 0.0012778476 0.0045608524 0.011105051 0.088738665 0.013370685 0.029827226 -0.026670115
-0.004052524 0.015326158 0.02774117 0.029450318 0.016639216 -0.0058821123 -0.0001513349 0.013896099
0.027192112 -0.031042533 -0.049725223 -0.009249892 -0.012864092 -0.021913214 0.018669914 0.004261347
-0.014661193 0.057089332 -0.0073238206 -0.00770482 -0.004428491 0.026391838 0.028677464 0.010304652
-0.000907854 0.040100597 0.04497674 -0.03449785 0.06678238 -0.019316118 0.025046268 0.029932674
0.056980327 -0.042964652 0.029881112 -0.020592473 -0.023421235 0.0051182904 -0.005656525 0.0054304376
0.0014063825 -0.03388535 -0.04274224 -0.01707854 0.014707079 0.023858186 -0.008045625 -0.033393342
-0.0027518815 -0.003160209 0.02556148 0.015969837 0.01340233 0.00020364774 0.0034654539 0.03239978
-0.009763093 0.0039163404 -0.047864858 -0.013694368 0.04805193 -0.01039536 0.0643422 0.03545795
-0.017424535 -0.0077559245 -0.0048507806 -0.016200658 0.0100429775 0.014743857 0.009941759 -0.030874029
0.05692761 -0.08772373 0.02244787 -0.006622162 -0.034993608 -0.029402815 -0.013842947 -0.008744754
0.024740696 0.00045194468 -0.041400213 0.05060304 0.03448748 -0.02509562 -0.015885875 -0.0032161942
-0.014366679 0.013987165 -0.07978926 0.04280592 0.006354086 0.0022365917 -0.031678595 -0.037737396
0.0109871235 -0.056021217 -0.0045244847 -0.013490495 -0.03801685 0.035021435 0.0401507 0.0019579388
-0.03816954 0.004636516 0.04452807 -0.011042722 -0.009873927 0.0137739945 -0.018446375 -0.02191808
0.019680642 0.030737562 -0.071912415 0.022359904 0.051653486 0.00024749435 -0.029884363 2.3254777e-33
0.031615954 0.021742359 -0.037322458 -0.025720391 0.052681793 0.00010183899 -0.013336091 -0.036328398
0.024702223 0.041430213 -0.01576976 0.010632235 -0.016080726 -0.017455814 -0.035027884 -0.00803867
-0.03857424 0.0076142275 -0.046543237 0.055300698 0.057591587 -0.024172978 -0.02639974 0.0595281
-0.028150113 0.049036086 0.022762096 -0.0067046867 0.04958378 0.0124589875 -0.06777773 0.050622366
0.038205713 0.028815355 0.048922442 0.009860214 -0.00085182406 -0.021482797 -0.042076908 -0.01502686
-0.022270964 0.0011780818 -0.0068547344 0.015859777 -0.0018874041 0.01751829 -0.024172794 -0.0456068
0.0286512 -0.037667193 0.00599297 0.035649672 -0.022421293 -0.016106118 -0.01288458 0.022955699
-0.017807195 0.027100233 0.049389925 0.0069507463 -0.010675075 -0.003971602 -0.027264101 0.0045970865
0.00040002455 -0.04541738 -0.030055981 0.020305403 -0.012428636 0.006226535 0.03607491 0.0091184415
0.041079033 0.015214311 -0.053437863 0.00845208 -0.014690313 0.014866513 0.009998536 -0.0035140938
-0.007882313 -0.049472887 0.0657591 0.005852329 -0.009933321 -0.025928978 0.0073856497 -0.023275971
-0.01046144 0.047671024 -0.05814894 -0.00983358 0.021804035 0.018902468 -0.050774716 -4.2590735e-33
-0.008250885 -0.021207266 -0.041734736 -0.015882403 0.005882532 -0.015268305 0.011306867 0.022310931
0.08292049 -0.010402752 -0.028200278 -0.049132697 -0.0041311956 0.046762258 0.0009671439 -0.030143168
0.07328489 0.010293838 -0.036510218 0.038016453 -0.007010794 -0.0045715366 -0.05333456 0.058648743
-0.0031707978 0.027894279 0.08669973 0.016082585 -0.021422314 -0.015407334 -0.03660409 -0.0055219675
