analyse_fase-kenmerken_onderzoek/Engagement/modellen/topic-model-yt-3/ctfidf.safetensors (safetensors, 684100 bytes, 4 tensors)

data f8 [46055]
0.00012819196316630357 0.0001521113183801666 0.0001521113183801666 0.0001521113183801666 0.0001315080694361988 0.00037644781414478156 0.0001521113183801666 0.0001521113183801666
0.0001254826047149272 0.0001521113183801666 0.00023036676452679045 0.0002257865368571943 0.0005343523576643498 0.0001521113183801666 0.0001418094269531034 0.00022373668659232557
0.0001254826047149272 0.00012819196316630357 0.00036362333870104083 0.011379539988640794 0.0010787114880972694 0.0006654577458188748 0.0007432569628499937 0.0001521113183801666
0.008062717721916121 0.0001521113183801666 0.0010654960676898726 0.012813986023969012 0.00011789220703469844 0.0028090523145007117 0.00021519023745716548 0.00047783069500162206
0.0001418094269531034 0.0001521113183801666 0.0003695758717726597 0.00013578342837920897 0.0007560817722079027 0.006191487996631829 0.0008441552133582811 0.0002279884412058115
0.0003695758717726597 0.0001521113183801666 0.0007528956282895631 0.00044363849721258317 0.0003327288729094374 0.0001521113183801666 0.01936571999292057 0.00034198266180871726
0.0001521113183801666 0.00034198266180871726 0.00034198266180871726 0.00034198266180871726 0.0003356050298884884 0.00031853869836428306 0.00034198266180871726 0.0001418094269531034
0.00031284343912307876 0.00034198266180871726 0.0003250709117263288 0.0004607335290535809 0.00034198266180871726 0.00034198266180871726 0.00012819196316630357 0.00013578342837920897
0.0005593417164808139 0.00022181924860629158 0.0002463839145151064 0.00034198266180871726 0.00034198266180871726 0.0001521113183801666 0.0001521113183801666 0.0001521113183801666
0.0001521113183801666 0.00034198266180871726 0.0003274801559824438 0.00034198266180871726 0.00034198266180871726 0.00032061141459860994 0.00034198266180871726 0.00033867980528579143
0.00019857081383672275 0.0002463839145151064 0.0015356162656654676 0.00012819196316630357 0.00023891534750081103 0.0001315080694361988 0.00027156685675841795 0.0009752127351789864
0.006102724459863532 0.0003308574071753411 0.00015989373015361458 0.00011945767375040551 0.0001521113183801666 0.0013105059023981458 0.0001521113183801666 0.0001254826047149272
0.0004024629419663383 0.00013578342837920897 0.00031853869836428306 0.0002279884412058115 0.0001521113183801666 0.0001521113183801666 0.01609280460030091 0.0004366402079765917
0.00030326127358138333 0.00034198266180871726 0.00031284343912307876 0.00034198266180871726 0.0006274130235746359 0.0026282643710386555 0.00034198266180871726 0.00034198266180871726
0.00031466208205559 0.00033002723575939274 0.00034198266180871726 0.0006094435282744067 0.00022373668659232557 0.0027030137581647872 0.002230259848531215 0.0006920706045502257
0.00027156685675841795 0.01280801245883706 0.0001521113183801666 0.0001521113183801666 0.0001418094269531034 0.001015739213790678 0.0001315080694361988 0.0001521113183801666
0.0003695758717726597 0.0018358062359674439 0.00011647612103486026 0.0001521113183801666 0.0005699711030145287 0.0005214057318717979 0.00023295224206972053 0.00033002723575939274
0.00034555014679018566 0.002490406189900915 0.00034198266180871726 0.0002836188539062068 0.0002509652094298544 0.0009683560685572446 0.0001418094269531034 0.0007698403257281753
0.0011919266763298724 0.0001315080694361988 0.0001254826047149272 0.00013578342837920897 0.00034198266180871726 0.0003356050298884884 0.0015104072011662484 0.00013578342837920897
0.0005417848528772147 0.00047783069500162206 0.007354101504231569 0.0007167460425024331 0.0001521113183801666 0.0022684760325707275 0.0007763673701220205 0.0001418094269531034
0.0001418094269531034 0.0015926934918214153 0.0001418094269531034 0.0026246446728256027 0.0030929741807146924 0.002474626262707778 0.00023891534750081103 0.0001521113183801666
0.004929544410930378 0.00013578342837920897 0.006380736547130829 0.0001521113183801666 0.0006988567262091616 0.0001521113183801666 0.0028443011188582943 0.00923197550476714
0.00034198266180871726 0.00013578342837920897 0.00034198266180871726 0.00011789220703469844 0.00030472176413720337 0.0002836188539062068 0.00034198266180871726 0.00034198266180871726
0.00034198266180871726 0.00034198266180871726 0.0001521113183801666 0.0007299680246205171 0.0002991471684691074 0.004308373124557235 0.00021103880333957027 0.0009350571541218869
0.0002836188539062068 0.002255809270337031 0.0001521113183801666 0.00036362333870104083 0.0001418094269531034 0.00020519662669711553 0.00033867980528579143 0.0009309600614099815
0.0012180773072130093 0.0007299680246205171 0.00011647612103486026 0.002233769719616513 0.007648784839110034 0.0001521113183801666 0.00027156685675841795 0.0027132174496793753
0.00010061573549158457 0.001235705526256041 0.00030326127358138333 0.0002630161388723976 0.00125864832822236 0.0005545481215157289 0.00020415455091598014 0.0007979595442203402
0.00013578342837920897 0.00027156685675841795 0.0007299680246205171 0.010196120381607568 0.00034198266180871726 0.0003356050298884884 0.00034198266180871726 0.0003274801559824438
0.00034198266180871726 0.00034198266180871726 0.0007167460425024331 0.00034198266180871726 0.00034198266180871726 0.00034198266180871726 0.0010787114880972694 0.0005477249401334606
0.0004607335290535809 0.0008153328472440218 0.00041039325339423105 0.000239497865510239 0.00730302575734175 0.00013578342837920897 0.0013822005871607426 0.0004515730737143886
0.0023434773899425397 0.00027156685675841795 0.011880867691842233 0.0002630161388723976 0.0014098807939606445 0.0001418094269531034 0.0013243682851318667 0.00011789220703469844
0.0010663057054494537 0.0002167139411508859 0.0018724910609876951 0.0003945242083085964 0.0019943144564607156 0.00012819196316630357 0.0001521113183801666 0.0006988567262091616
00000000: 0775 2d94 68cd 203f 1af8 8c46 02f0 233f
00000010: 1af8 8c46 02f0 233f 1af8 8c46 02f0 233f
00000020: 81a2 fbb6 ad3c 213f 042e e70c bfab 383f
00000030: 1af8 8c46 02f0 233f 1af8 8c46 02f0 233f
00000040: 0374 ef5d 7f72 203f 1af8 8c46 02f0 233f
00000050: cf2c 8070 d331 2e3f b8ea 5695 2398 2d3f
00000060: b26d 4af3 7882 413f 1af8 8c46 02f0 233f
00000070: d7f3 b9b3 5596 223f d2c9 ef80 5b53 2d3f
00000080: 0374 ef5d 7f72 203f 0775 2d94 68cd 203f
00000090: 9253 0859 96d4 373f 2b05 c200 284e 873f
000000a0: 8b6c 0ba4 71ac 513f 8f25 a9a0 43ce 453f
000000b0: 111e 8a2c e45a 483f 1af8 8c46 02f0 233f
000000c0: 78c7 75a7 2f83 803f 1af8 8c46 02f0 233f
000000d0: 5b93 f1b0 0375 513f cb1a 3c17 383e 8a3f
000000e0: 9cd6 d5b1 9ce7 1e3f 4563 5a7a 0203 673f
000000f0: 7d3b 8910 9634 2c3f d837 4335 ab50 3f3f
00000100: d7f3 b9b3 5596 223f 1af8 8c46 02f0 233f
00000110: 9f07 5c48 7438 383f 3576 b9c4 22cc 213f
00000120: 14c9 0b3e 79c6 483f 0184 58e7 3e5c 793f
00000130: bb19 5e84 49a9 4b3f bc68 35cc 05e2 2d3f
00000140: 9f07 5c48 7438 383f 1af8 8c46 02f0 233f
00000150: 042e e70c bfab 483f bedc 36d6 0413 3d3f
00000160: 8f25 a9a0 43ce 353f 1af8 8c46 02f0 233f
00000170: 9ce1 2178 9bd4 933f 8d0e 2859 8469 363f
00000180: 1af8 8c46 02f0 233f 8d0e 2859 8469 363f
00000190: 8d0e 2859 8469 363f 8d0e 2859 8469 363f
000001a0: 5ed7 b3a0 84fe 353f 7d87 bf4a 31e0 343f
000001b0: 8d0e 2859 8469 363f d7f3 b9b3 5596 223f
000001c0: 0840 fd56 a480 343f 8d0e 2859 8469 363f
000001d0: e97a 4bef c84d 353f cf2c 8070 d331 3e3f
000001e0: 8d0e 2859 8469 363f 8d0e 2859 8469 363f
000001f0: 0775 2d94 68cd 203f 3576 b9c4 22cc 213f
00000200: 23de 9530 1954 423f bedc 36d6 0413 2d3f
00000210: 1405 e8da a225 303f 8d0e 2859 8469 363f
00000220: 8d0e 2859 8469 363f 1af8 8c46 02f0 233f
00000230: 1af8 8c46 02f0 233f 1af8 8c46 02f0 233f
00000240: 1af8 8c46 02f0 233f 8d0e 2859 8469 363f
00000250: 415c 5e8f 3476 353f 8d0e 2859 8469 363f
00000260: 8d0e 2859 8469 363f 7050 598a f702 353f
00000270: 8d0e 2859 8469 363f 0a30 01b0 1a32 363f
00000280: 1037 804d ee06 2a3f 1405 e8da a225 303f
00000290: 4aac f968 d728 593f 0775 2d94 68cd 203f
000002a0: d837 4335 ab50 2f3f 81a2 fbb6 ad3c 213f
000002b0: 3576 b9c4 22cc 313f 5d38 f166 adf4 4f3f
000002c0: 37ba 8b9f 2bff 783f 283a 53be ddae 353f
000002d0: 5056 06af 24f5 243f d837 4335 ab50 1f3f
000002e0: 1af8 8c46 02f0 233f 802c 7dff a878 553f
000002f0: 1af8 8c46 02f0 233f 0374 ef5d 7f72 203f
00000300: 8ee0 702c 3560 3a3f 3576 b9c4 22cc 213f
00000310: 7d87 bf4a 31e0 343f bc68 35cc 05e2 2d3f
00000320: 1af8 8c46 02f0 233f 1af8 8c46 02f0 233f
00000330: 583b d6d5 a17a 903f ab25 d369 9b9d 3c3f
00000340: 5290 8e40 e1df 333f 8d0e 2859 8469 363f
00000350: 0840 fd56 a480 343f 8d0e 2859 8469 363f
00000360: 0351 6b35 1f8f 443f ae71 9ab0 de87 653f
00000370: 8d0e 2859 8469 363f 8d0e 2859 8469 363f
00000380: df52 0a5a 279f 343f db41 332f f0a0 353f
00000390: 8d0e 2859 8469 363f d4bf e702 62f8 433f
000003a0: d2c9 ef80 5b53 2d3f 8580 2476 a124 663f
000003b0: 1e81 8da3 3145 623f c3f3 784e 82ad 463f
000003c0: 3576 b9c4 22cc 313f a087 1955 163b 8a3f
000003d0: 1af8 8c46 02f0 233f 1af8 8c46 02f0 233f
000003e0: d7f3 b9b3 5596 223f 3175 16ad 51a4 503f
000003f0: 81a2 fbb6 ad3c 213f 1af8 8c46 02f0 233f
00000400: 9f07 5c48 7438 383f a78d b2ef ed13 5e3f
00000410: 148a be85 9488 1e3f 1af8 8c46 02f0 233f
00000420: 7561 a19f 43ad 423f 5cb5 7d48 de15 413f
00000430: 148a be85 9488 2e3f db41 332f f0a0 353f
00000440: 9b21 6094 5ea5 363f e0cd 75a4 c266 643f
00000450: 8d0e 2859 8469 363f d7f3 b9b3 5596 323f
00000460: 0374 ef5d 7f72 303f ec62 9ad2 28bb 4f3f
00000470: d7f3 b9b3 5596 223f 88a1 d582 e339 493f
00000480: ab30 0586 4d87 533f 81a2 fbb6 ad3c 213f
00000490: 0374 ef5d 7f72 203f 3576 b9c4 22cc 213f
000004a0: 8d0e 2859 8469 363f 5ed7 b3a0 84fe 353f
000004b0: 1ff8 1662 1bbf 583f 3576 b9c4 22cc 213f
000004c0: 6de6 be1c d2c0 413f d837 4335 ab50 3f3f
000004d0: 19f6 3b97 551f 7e3f e269 f267 807c 473f
000004e0: 1af8 8c46 02f0 233f dc90 e4cb 5695 623f
000004f0: 2601 703b a470 493f d7f3 b9b3 5596 223f
00000500: d7f3 b9b3 5596 223f 5c69 6f9d 3d18 5a3f
00000510: d7f3 b9b3 5596 223f afaa 1161 4780 653f
00000520: 826a 83de 6f56 693f fce7 c7db aa45 643f
00000530: d837 4335 ab50 2f3f 1af8 8c46 02f0 233f
00000540: 5d4c 7780 0031 743f 3576 b9c4 22cc 213f
00000550: b587 b5ec af22 7a3f 1af8 8c46 02f0 233f
00000560: 8fe7 4e64 6fe6 463f 1af8 8c46 02f0 233f
00000570: 6697 2289 ee4c 673f 6bad f6c6 36e8 823f
00000580: 8d0e 2859 8469 363f 3576 b9c4 22cc 213f
00000590: 8d0e 2859 8469 363f 9cd6 d5b1 9ce7 1e3f
000005a0: d4bf e702 62f8 333f d7f3 b9b3 5596 323f
000005b0: 8d0e 2859 8469 363f 8d0e 2859 8469 363f
000005c0: 8d0e 2859 8469 363f 8d0e 2859 8469 363f
000005d0: 1af8 8c46 02f0 233f b4ca 7c65 6aeb 473f
000005e0: 94e6 254e db9a 333f 06f9 b31a a8a5 713f
000005f0: bb19 5e84 49a9 2b3f 92cb cbf2 d3a3 4e3f
00000600: d7f3 b9b3 5596 323f 87f9 5861 c67a 623f
00000610: 1af8 8c46 02f0 233f 9253 0859 96d4 373f
00000620: d7f3 b9b3 5596 223f fe59 119a 41e5 2a3f
00000630: 0a30 01b0 1a32 363f 74f6 4182 7581 4e3f
00000640: dde3 b38c fcf4 533f b4ca 7c65 6aeb 473f
00000650: 148a be85 9488 1e3f dac0 8ffc 8d4c 623f
00000660: 0c55 cf0b 5554 7f3f 1af8 8c46 02f0 233f
00000670: 3576 b9c4 22cc 313f 536e d386 073a 663f
00000680: 8ee0 702c 3560 1a3f 7a09 a8b4 ec3e 543f
00000690: 5290 8e40 e1df 333f 81a2 fbb6 ad3c 313f
000006a0: df52 0a5a 279f 543f f649 e205 e32b 423f
000006b0: 5fe6 303d 4ac2 2a3f a4bb ae12 c525 4a3f
000006c0: 3576 b9c4 22cc 213f 3576 b9c4 22cc 313f
000006d0: b4ca 7c65 6aeb 473f 4840 ae1c b4e1 843f
000006e0: 8d0e 2859 8469 363f 5ed7 b3a0 84fe 353f
000006f0: 8d0e 2859 8469 363f 415c 5e8f 3476 353f
00000700: 8d0e 2859 8469 363f 8d0e 2859 8469 363f
00000710: e269 f267 807c 473f 8d0e 2859 8469 363f
00000720: 8d0e 2859 8469 363f 8d0e 2859 8469 363f
00000730: 8b6c 0ba4 71ac 513f a5f4 3f5a a6f2 413f
00000740: cf2c 8070 d331 3e3f d1b8 06f5 81b7 4a3f
00000750: fe59 119a 41e5 3a3f 217e e9ff 3664 2f3f
00000760: 7151 a20c c7e9 7d3f 3576 b9c4 22cc 213f
00000770: 9b21 6094 5ea5 563f b8ea 5695 2398 3d3f
00000780: cf80 f5d7 a032 633f 3576 b9c4 22cc 313f
00000790: 6cfd 7911 ff54 883f 81a2 fbb6 ad3c 313f
000007a0: e937 aff9 7719 573f d7f3 b9b3 5596 223f
000007b0: b674 3d9e cdb2 553f 9cd6 d5b1 9ce7 1e3f
000007c0: c6f4 7908 6978 513f e2a3 6494 b667 2c3f
000007d0: 139b 9df7 cbad 5e3f c173 7992 04db 393f
000007e0: 2540 ca6b 6156 603f 0775 2d94 68cd 203f
000007f0: 1af8 8c46 02f0 233f 8fe7 4e64 6fe6 463f

diag f8 [16377]
5.290306642801958 5.418177097426037 10.234049500617608 10.234049500617608 10.234049500617608 9.13550906135318 10.234049500617608 10.234049500617608
8.037112289927283 9.540938245404796 7.1437612086496545 8.037112289927283 9.540938245404796 10.234049500617608 8.624755281828904 6.077427197292509
10.234049500617608 6.902814522090966 10.234049500617608 10.234049500617608 10.234049500617608 10.234049500617608 6.939146274439789 6.651787182019884
10.234049500617608 9.540938245404796 10.234049500617608 5.673108467471386 10.234049500617608 6.7088738315338485 8.847862911667455 10.234049500617608
9.13550906135318 7.056821626900031 10.234049500617608 6.7088738315338485 6.902814522090966 10.234049500617608 8.442469645220301 10.234049500617608
8.442469645220301 10.234049500617608 10.234049500617608 10.234049500617608 10.234049500617608 9.13550906135318 4.737481322207384 6.597791719925843
10.234049500617608 10.234049500617608 10.234049500617608 10.234049500617608 10.234049500617608 10.234049500617608 9.540938245404796 10.234049500617608
10.234049500617608 10.234049500617608 9.13550906135318 8.847862911667455 10.234049500617608 10.234049500617608 9.540938245404796 10.234049500617608
7.7495379586812305 10.234049500617608 10.234049500617608 10.234049500617608 7.836513423225399 7.056821626900031 10.234049500617608 10.234049500617608
9.13550906135318 8.847862911667455 5.9326035718549575 10.234049500617608 7.836513423225399 10.234049500617608 10.234049500617608 6.902814522090966
10.234049500617608 10.234049500617608 5.183392503568369 10.234049500617608 7.461999523115649 8.624755281828904 10.234049500617608 10.234049500617608
10.234049500617608 10.234049500617608 7.2389995880590465 10.234049500617608 9.540938245404796 10.234049500617608 10.234049500617608 8.847862911667455
6.76942668387381 8.624755281828904 6.939146274439789 6.158593596366709 8.624755281828904 10.234049500617608 10.234049500617608 10.234049500617608
8.847862911667455 10.234049500617608 10.234049500617608 10.234049500617608 10.234049500617608 8.624755281828904 9.13550906135318 10.234049500617608
9.540938245404796 5.546574117759766 8.442469645220301 10.234049500617608 10.234049500617608 10.234049500617608 9.540938245404796 10.234049500617608
10.234049500617608 9.13550906135318 10.234049500617608 10.234049500617608 10.234049500617608 10.234049500617608 10.234049500617608 9.13550906135318
9.540938245404796 8.624755281828904 10.234049500617608 10.234049500617608 6.385553130526899 9.13550906135318 9.13550906135318 10.234049500617608
9.540938245404796 10.234049500617608 10.234049500617608 7.931787689294511 10.234049500617608 10.234049500617608 10.234049500617608 6.061958854977562
8.154859409268676 9.13550906135318 10.234049500617608 10.234049500617608 9.540938245404796 10.234049500617608 10.234049500617608 10.234049500617608
10.234049500617608 10.234049500617608 10.234049500617608 9.13550906135318 6.73869091058915 10.234049500617608 10.234049500617608 9.13550906135318
8.28835488428818 9.13550906135318 10.234049500617608 10.234049500617608 10.234049500617608 6.385553130526899 8.28835488428818 10.234049500617608
10.234049500617608 9.540938245404796 9.540938245404796 10.234049500617608 10.234049500617608 10.234049500617608 10.234049500617608 10.234049500617608
10.234049500617608 9.540938245404796 9.540938245404796 10.234049500617608 10.234049500617608 10.234049500617608 10.234049500617608 10.234049500617608
10.234049500617608 9.540938245404796 10.234049500617608 10.234049500617608 10.234049500617608 10.234049500617608 10.234049500617608 5.1400219302105725
10.234049500617608 10.234049500617608 10.234049500617608 10.234049500617608 10.234049500617608 10.234049500617608 10.234049500617608 10.234049500617608
10.234049500617608 10.234049500617608 10.234049500617608 10.234049500617608 10.234049500617608 10.234049500617608 10.234049500617608 10.234049500617608
10.234049500617608 10.234049500617608 10.234049500617608 10.234049500617608 10.234049500617608 10.234049500617608 9.540938245404796 6.497851764275041
10.234049500617608 9.540938245404796 9.13550906135318 9.540938245404796 9.540938245404796 8.442469645220301 10.234049500617608 9.540938245404796
10.234049500617608 9.540938245404796 10.234049500617608 8.442469645220301 9.540938245404796 10.234049500617608 10.234049500617608 10.234049500617608
10.234049500617608 10.234049500617608 10.234049500617608 10.234049500617608 10.234049500617608 8.847862911667455 9.540938245404796 10.234049500617608
10.234049500617608 8.847862911667455 10.234049500617608 8.847862911667455 10.234049500617608 10.234049500617608 10.234049500617608 10.234049500617608
10.234049500617608 10.234049500617608 10.234049500617608 10.234049500617608 10.234049500617608 9.13550906135318 10.234049500617608 8.624755281828904
00000000: 7795 0225 4629 1540 2e86 f59d 36ac 1540
00000010: 7498 0d56 d577 2440 7498 0d56 d577 2440
00000020: 7498 0d56 d577 2440 aaa5 9571 6145 2240
00000030: 7498 0d56 d577 2440 7498 0d56 d577 2440
00000040: e208 cf61 0013 2040 a456 92db f514 2340
00000050: b555 6623 3693 1c40 e208 cf61 0013 2040
00000060: a456 92db f514 2340 7498 0d56 d577 2440
00000070: b4ea 9eec df3f 2140 e1c4 4013 494f 1840
00000080: 7498 0d56 d577 2440 33f0 fa68 7b9c 1b40
00000090: 7498 0d56 d577 2440 7498 0d56 d577 2440
000000a0: 7498 0d56 d577 2440 7498 0d56 d577 2440
000000b0: 3c84 9b8f afc1 1b40 dce8 5a19 6e9b 1a40
000000c0: 7498 0d56 d577 2440 a456 92db f514 2340
000000d0: 7498 0d56 d577 2440 17cd 9958 43b1 1640
000000e0: 7498 0d56 d577 2440 5eb6 8d05 e3d5 1a40
000000f0: c434 6a16 1bb2 2140 7498 0d56 d577 2440
00000100: aaa5 9571 6145 2240 eff6 d472 2f3a 1c40
00000110: 7498 0d56 d577 2440 5eb6 8d05 e3d5 1a40
00000120: 33f0 fa68 7b9c 1b40 7498 0d56 d577 2440
00000130: 4963 9f61 8be2 2040 7498 0d56 d577 2440
00000140: 4963 9f61 8be2 2040 7498 0d56 d577 2440
00000150: 7498 0d56 d577 2440 7498 0d56 d577 2440
00000160: 7498 0d56 d577 2440 aaa5 9571 6145 2240
00000170: 8d2a c14d 2ef3 1240 b79a 3b83 2364 1a40
00000180: 7498 0d56 d577 2440 7498 0d56 d577 2440
00000190: 7498 0d56 d577 2440 7498 0d56 d577 2440
000001a0: 7498 0d56 d577 2440 7498 0d56 d577 2440
000001b0: a456 92db f514 2340 7498 0d56 d577 2440
000001c0: 7498 0d56 d577 2440 7498 0d56 d577 2440
000001d0: aaa5 9571 6145 2240 c434 6a16 1bb2 2140
000001e0: 7498 0d56 d577 2440 7498 0d56 d577 2440
000001f0: a456 92db f514 2340 7498 0d56 d577 2440
00000200: 0096 eee0 86ff 1e40 7498 0d56 d577 2440
00000210: 7498 0d56 d577 2440 7498 0d56 d577 2440
00000220: 21ac 8df9 9658 1f40 eff6 d472 2f3a 1c40
00000230: 7498 0d56 d577 2440 7498 0d56 d577 2440
00000240: aaa5 9571 6145 2240 c434 6a16 1bb2 2140
00000250: d3ff 446e fcba 1740 7498 0d56 d577 2440
00000260: 21ac 8df9 9658 1f40 7498 0d56 d577 2440
00000270: 7498 0d56 d577 2440 33f0 fa68 7b9c 1b40
00000280: 7498 0d56 d577 2440 7498 0d56 d577 2440
00000290: 7ea1 943e cbbb 1440 7498 0d56 d577 2440
000002a0: 7e32 2a67 16d9 1d40 b4ea 9eec df3f 2140
000002b0: 7498 0d56 d577 2440 7498 0d56 d577 2440
000002c0: 7498 0d56 d577 2440 7498 0d56 d577 2440
000002d0: 62e2 d94e bcf4 1c40 7498 0d56 d577 2440
000002e0: a456 92db f514 2340 7498 0d56 d577 2440
000002f0: 7498 0d56 d577 2440 c434 6a16 1bb2 2140
00000300: 88a1 af96 e413 1b40 b4ea 9eec df3f 2140
00000310: 3c84 9b8f afc1 1b40 0a00 175c 66a2 1840
00000320: b4ea 9eec df3f 2140 7498 0d56 d577 2440
00000330: 7498 0d56 d577 2440 7498 0d56 d577 2440
00000340: c434 6a16 1bb2 2140 7498 0d56 d577 2440
00000350: 7498 0d56 d577 2440 7498 0d56 d577 2440
00000360: 7498 0d56 d577 2440 b4ea 9eec df3f 2140
00000370: aaa5 9571 6145 2240 7498 0d56 d577 2440
00000380: a456 92db f514 2340 1679 2220 b12f 1640
00000390: 4963 9f61 8be2 2040 7498 0d56 d577 2440
000003a0: 7498 0d56 d577 2440 7498 0d56 d577 2440
000003b0: a456 92db f514 2340 7498 0d56 d577 2440
000003c0: 7498 0d56 d577 2440 aaa5 9571 6145 2240
000003d0: 7498 0d56 d577 2440 7498 0d56 d577 2440
000003e0: 7498 0d56 d577 2440 7498 0d56 d577 2440
000003f0: 7498 0d56 d577 2440 aaa5 9571 6145 2240
00000400: a456 92db f514 2340 b4ea 9eec df3f 2140
00000410: 7498 0d56 d577 2440 7498 0d56 d577 2440
00000420: 0eef 9970 ce8a 1940 aaa5 9571 6145 2240
00000430: aaa5 9571 6145 2240 7498 0d56 d577 2440
00000440: a456 92db f514 2340 7498 0d56 d577 2440
00000450: 7498 0d56 d577 2440 6257 518d 26ba 1f40
00000460: 7498 0d56 d577 2440 7498 0d56 d577 2440
00000470: 7498 0d56 d577 2440 114e 5f24 723f 1840
00000480: dd92 84bb 494f 2040 aaa5 9571 6145 2240
00000490: 7498 0d56 d577 2440 7498 0d56 d577 2440
000004a0: a456 92db f514 2340 7498 0d56 d577 2440
000004b0: 7498 0d56 d577 2440 7498 0d56 d577 2440
000004c0: 7498 0d56 d577 2440 7498 0d56 d577 2440
000004d0: 7498 0d56 d577 2440 aaa5 9571 6145 2240
000004e0: d954 db63 6bf4 1a40 7498 0d56 d577 2440
000004f0: 7498 0d56 d577 2440 aaa5 9571 6145 2240
00000500: b751 5b40 a393 2040 aaa5 9571 6145 2240
00000510: 7498 0d56 d577 2440 7498 0d56 d577 2440
00000520: 7498 0d56 d577 2440 0eef 9970 ce8a 1940
00000530: b751 5b40 a393 2040 7498 0d56 d577 2440
00000540: 7498 0d56 d577 2440 a456 92db f514 2340
00000550: a456 92db f514 2340 7498 0d56 d577 2440
00000560: 7498 0d56 d577 2440 7498 0d56 d577 2440
00000570: 7498 0d56 d577 2440 7498 0d56 d577 2440
00000580: 7498 0d56 d577 2440 a456 92db f514 2340
00000590: a456 92db f514 2340 7498 0d56 d577 2440
000005a0: 7498 0d56 d577 2440 7498 0d56 d577 2440
000005b0: 7498 0d56 d577 2440 7498 0d56 d577 2440
000005c0: 7498 0d56 d577 2440 a456 92db f514 2340
000005d0: 7498 0d56 d577 2440 7498 0d56 d577 2440
000005e0: 7498 0d56 d577 2440 7498 0d56 d577 2440
000005f0: 7498 0d56 d577 2440 a8e8 abe8 618f 1440
00000600: 7498 0d56 d577 2440 7498 0d56 d577 2440
00000610: 7498 0d56 d577 2440 7498 0d56 d577 2440
00000620: 7498 0d56 d577 2440 7498 0d56 d577 2440
00000630: 7498 0d56 d577 2440 7498 0d56 d577 2440
00000640: 7498 0d56 d577 2440 7498 0d56 d577 2440
00000650: 7498 0d56 d577 2440 7498 0d56 d577 2440
00000660: 7498 0d56 d577 2440 7498 0d56 d577 2440
00000670: 7498 0d56 d577 2440 7498 0d56 d577 2440
00000680: 7498 0d56 d577 2440 7498 0d56 d577 2440
00000690: 7498 0d56 d577 2440 7498 0d56 d577 2440
000006a0: 7498 0d56 d577 2440 7498 0d56 d577 2440
000006b0: a456 92db f514 2340 d144 57da ccfd 1940
000006c0: 7498 0d56 d577 2440 a456 92db f514 2340
000006d0: aaa5 9571 6145 2240 a456 92db f514 2340
000006e0: a456 92db f514 2340 4963 9f61 8be2 2040
000006f0: 7498 0d56 d577 2440 a456 92db f514 2340
00000700: 7498 0d56 d577 2440 a456 92db f514 2340
00000710: 7498 0d56 d577 2440 4963 9f61 8be2 2040
00000720: a456 92db f514 2340 7498 0d56 d577 2440
00000730: 7498 0d56 d577 2440 7498 0d56 d577 2440
00000740: 7498 0d56 d577 2440 7498 0d56 d577 2440
00000750: 7498 0d56 d577 2440 7498 0d56 d577 2440
00000760: 7498 0d56 d577 2440 c434 6a16 1bb2 2140
00000770: a456 92db f514 2340 7498 0d56 d577 2440
00000780: 7498 0d56 d577 2440 c434 6a16 1bb2 2140
00000790: 7498 0d56 d577 2440 c434 6a16 1bb2 2140
000007a0: 7498 0d56 d577 2440 7498 0d56 d577 2440
000007b0: 7498 0d56 d577 2440 7498 0d56 d577 2440
000007c0: 7498 0d56 d577 2440 7498 0d56 d577 2440
000007d0: 7498 0d56 d577 2440 7498 0d56 d577 2440
000007e0: 7498 0d56 d577 2440 aaa5 9571 6145 2240
000007f0: 7498 0d56 d577 2440 b4ea 9eec df3f 2140

indices i4 [46055]
16358 16356 16355 16354 16351 16347 16346 16339
16334 16332 16326 16318 16300 16296 16292 16291
16289 16288 16287 16281 16280 16278 16277 16276
16273 16272 16270 16268 16266 16264 16253 16252
16250 16249 16247 16246 16244 16242 16241 16240
16239 16238 16226 16225 16206 16205 16203 16202
16197 16193 16192 16190 16188 16186 16184 16183
16180 16179 16177 16176 16175 16174 16172 16169
16167 16165 16163 16158 16157 16156 16153 16152
16151 16138 16137 16136 16135 16132 16131 16128
16126 16125 16123 16121 16115 16112 16111 16110
16109 16098 16095 16093 16092 16091 16090 16089
16088 16086 16073 16072 16071 16069 16068 16065
16060 16059 16052 16051 16049 16048 16043 16042
16040 16038 16037 16035 16034 16033 16032 16031
16027 16026 16022 16020 16019 16018 16015 16009
16008 16006 16003 16000 15999 15998 15995 15993
15985 15983 15982 15981 15975 15973 15970 15969
15967 15966 15965 15964 15962 15961 15959 15957
15956 15951 15950 15949 15945 15943 15942 15940
15938 15937 15935 15934 15933 15932 15931 15929
15927 15926 15925 15924 15923 15922 15921 15916
15913 15912 15909 15906 15904 15903 15902 15901
15897 15895 15890 15888 15885 15878 15877 15873
15872 15868 15867 15864 15861 15859 15858 15856
15853 15852 15851 15850 15848 15847 15846 15842
15837 15836 15833 15832 15831 15830 15829 15827
15826 15825 15824 15821 15818 15817 15815 15809
15808 15807 15806 15803 15802 15801 15799 15797
15793 15785 15782 15780 15778 15767 15766 15764
15763 15761 15758 15754 15748 15746 15745 15743
15737 15734 15731 15730 15729 15721 15720 15718
00000000: e63f 0000 e43f 0000 e33f 0000 e23f 0000
00000010: df3f 0000 db3f 0000 da3f 0000 d33f 0000
00000020: ce3f 0000 cc3f 0000 c63f 0000 be3f 0000
00000030: ac3f 0000 a83f 0000 a43f 0000 a33f 0000
00000040: a13f 0000 a03f 0000 9f3f 0000 993f 0000
00000050: 983f 0000 963f 0000 953f 0000 943f 0000
00000060: 913f 0000 903f 0000 8e3f 0000 8c3f 0000
00000070: 8a3f 0000 883f 0000 7d3f 0000 7c3f 0000
00000080: 7a3f 0000 793f 0000 773f 0000 763f 0000
00000090: 743f 0000 723f 0000 713f 0000 703f 0000
000000a0: 6f3f 0000 6e3f 0000 623f 0000 613f 0000
000000b0: 4e3f 0000 4d3f 0000 4b3f 0000 4a3f 0000
000000c0: 453f 0000 413f 0000 403f 0000 3e3f 0000
000000d0: 3c3f 0000 3a3f 0000 383f 0000 373f 0000
000000e0: 343f 0000 333f 0000 313f 0000 303f 0000
000000f0: 2f3f 0000 2e3f 0000 2c3f 0000 293f 0000
00000100: 273f 0000 253f 0000 233f 0000 1e3f 0000
00000110: 1d3f 0000 1c3f 0000 193f 0000 183f 0000
00000120: 173f 0000 0a3f 0000 093f 0000 083f 0000
00000130: 073f 0000 043f 0000 033f 0000 003f 0000
00000140: fe3e 0000 fd3e 0000 fb3e 0000 f93e 0000
00000150: f33e 0000 f03e 0000 ef3e 0000 ee3e 0000
00000160: ed3e 0000 e23e 0000 df3e 0000 dd3e 0000
00000170: dc3e 0000 db3e 0000 da3e 0000 d93e 0000
00000180: d83e 0000 d63e 0000 c93e 0000 c83e 0000
00000190: c73e 0000 c53e 0000 c43e 0000 c13e 0000
000001a0: bc3e 0000 bb3e 0000 b43e 0000 b33e 0000
000001b0: b13e 0000 b03e 0000 ab3e 0000 aa3e 0000
000001c0: a83e 0000 a63e 0000 a53e 0000 a33e 0000
000001d0: a23e 0000 a13e 0000 a03e 0000 9f3e 0000
000001e0: 9b3e 0000 9a3e 0000 963e 0000 943e 0000
000001f0: 933e 0000 923e 0000 8f3e 0000 893e 0000
00000200: 883e 0000 863e 0000 833e 0000 803e 0000
00000210: 7f3e 0000 7e3e 0000 7b3e 0000 793e 0000
00000220: 713e 0000 6f3e 0000 6e3e 0000 6d3e 0000
00000230: 673e 0000 653e 0000 623e 0000 613e 0000
00000240: 5f3e 0000 5e3e 0000 5d3e 0000 5c3e 0000
00000250: 5a3e 0000 593e 0000 573e 0000 553e 0000
00000260: 543e 0000 4f3e 0000 4e3e 0000 4d3e 0000
00000270: 493e 0000 473e 0000 463e 0000 443e 0000
00000280: 423e 0000 413e 0000 3f3e 0000 3e3e 0000
00000290: 3d3e 0000 3c3e 0000 3b3e 0000 393e 0000
000002a0: 373e 0000 363e 0000 353e 0000 343e 0000
000002b0: 333e 0000 323e 0000 313e 0000 2c3e 0000
000002c0: 293e 0000 283e 0000 253e 0000 223e 0000
000002d0: 203e 0000 1f3e 0000 1e3e 0000 1d3e 0000
000002e0: 193e 0000 173e 0000 123e 0000 103e 0000
000002f0: 0d3e 0000 063e 0000 053e 0000 013e 0000
00000300: 003e 0000 fc3d 0000 fb3d 0000 f83d 0000
00000310: f53d 0000 f33d 0000 f23d 0000 f03d 0000
00000320: ed3d 0000 ec3d 0000 eb3d 0000 ea3d 0000
00000330: e83d 0000 e73d 0000 e63d 0000 e23d 0000
00000340: dd3d 0000 dc3d 0000 d93d 0000 d83d 0000
00000350: d73d 0000 d63d 0000 d53d 0000 d33d 0000
00000360: d23d 0000 d13d 0000 d03d 0000 cd3d 0000
00000370: ca3d 0000 c93d 0000 c73d 0000 c13d 0000
00000380: c03d 0000 bf3d 0000 be3d 0000 bb3d 0000
00000390: ba3d 0000 b93d 0000 b73d 0000 b53d 0000
000003a0: b13d 0000 a93d 0000 a63d 0000 a43d 0000
000003b0: a23d 0000 973d 0000 963d 0000 943d 0000
000003c0: 933d 0000 913d 0000 8e3d 0000 8a3d 0000
000003d0: 843d 0000 823d 0000 813d 0000 7f3d 0000
000003e0: 793d 0000 763d 0000 733d 0000 723d 0000
000003f0: 713d 0000 693d 0000 683d 0000 663d 0000

indptr i4 [14]
0 6174 10294 13374 18523 20167 23029 25839
30070 34071 37952 41587 44177 46055
00000000: 0000 0000 1e18 0000 3628 0000 3e34 0000
00000010: 5b48 0000 c74e 0000 f559 0000 ef64 0000
00000020: 7675 0000 1785 0000 4094 0000 73a2 0000
00000030: 91ac 0000 e7b3 0000
