analyse_fase-kenmerken_onderzoek/Engagement/modellen/topic-model-yt-3/topic_embeddings.safetensors (safetensors, 21592 bytes, 1 tensors)

topic_embeddings f4 [14, 384]
00000000: 517e aebc 01d9 2cbb df72 93bb ebbc 163c
00000010: 8b84 b13d c66f 863c 7d34 c03c 4c41 03bd
00000020: f5ed c1bb d1c2 393c ccc2 f43c 06d7 bf3c
00000030: 68d8 6d3c 4eb5 37bc 8f5f 4fb9 69c4 f93b
00000040: 09e5 063d 7515 11bd 0070 45bd 82a5 20bc
00000050: f7b8 91bc df84 ffbc fabf b13c c848 9c3b
00000060: 7b92 d5bc acd0 593d a834 66bc e706 18bc
00000070: b12d 43bb ca42 8b3c a043 eb3c d7de 683c
00000080: a99f 81ba 89ef 343d 6292 2c3d ba1f 28bd
00000090: f72a 903d b692 a8bc df2a ec3c 0fe8 163d
000000a0: e544 7f3d 65e9 2ebd f86d 9a3c ed13 2bbc
000000b0: f867 d3bc c4f1 353b 12f9 b1bb 9f9c ff3b
000000c0: c99b d43b 8774 f9bc bce5 19bd a271 44bc
000000d0: ebb3 643c bb34 e33c 2c5f 1bbc 9fbf 19bd
000000e0: 73ad 69ba 1096 2abb af82 033d bc63 713c
000000f0: c12c 8a3c 0812 153b 4432 1c3c e96c 063d
00000100: 8f32 5dbc b3f6 6f3b 2668 47bd 5b21 2cbc
00000110: 5a39 583d 88eb d1bc 6558 5a3d 95a8 1a3d
00000120: 2b9c a6bc be4b a3bb dec0 7bbb 5f3c 27bc
00000130: 40cc 3e3c bc48 483c 3748 563b 5f18 1abd
00000140: e459 4b3d c5e5 b9bd 7617 693c 7e31 b4bb
00000150: f3e9 e0bc 1c89 ecbc 2f51 d3bc b5a5 cbbb
00000160: 647e d53c b781 8a3b d1a9 16bd 882a 4c3d
00000170: 54ae f93c 581f 01bd c0ae 84bc 8276 243a
00000180: 034c 22bc ece1 553c cb9d 93bd 2884 253d
00000190: 2efd 153c da37 b0ba c0ba efbc 0d0b 20bd
000001a0: fc78 0d3c da91 5bbd de24 03bc dd60 1bbc
000001b0: 76dd 29bd 3648 0a3d 80d3 363d 8f67 c13b
000001c0: 7d10 11bd cb9a 4e3b 2c76 2e3d 8e6b d3bb
000001d0: 31f5 09bc 44c1 773c 6080 60bc a354 c0bc
000001e0: 2d10 b73c 716f ee3c 366d 84bd 334a 863c
000001f0: 81ea 353d db7e 783a c0c3 c7bc e915 4d09
00000200: 8c7d f63c 4654 ba3c 3f9a 1bbd 9e7a 06bd
00000210: be9e 5b3d 749a 5cbb bf99 6dbc eb0d d8bc
00000220: 4075 a13c 5070 333d 1dc3 89bc 9c1c 4d3c
00000230: d2d2 1bbc 7d33 91bc e078 14bd adc9 43bc
00000240: ee28 0dbd d9e0 463b 7f7d 43bd 0fd8 5f3d
00000250: 58fc 763d 5af5 d6bc 9af8 ffbc 375a 813d
00000260: 7ef4 c2bc c7d4 3d3d 0611 143c 29dd d7bb
00000270: 0b8c 4c3d a057 533c 4e6f 8fbd 5399 603d
00000280: 4010 333d 79f2 f23c 096b 633d cf46 343c
00000290: 7445 cf3a bf1b babc caf6 36bd 3ad4 bfbc
000002a0: de66 93bc 5cfd 93ba 66e1 96ba 7d17 6f3c
000002b0: 0b2b b3bb f74c 823c cdb0 c6bc 0d31 3abd
000002c0: 9481 e83c 2306 2cbd a068 d93b f53e fd3c
000002d0: 2ce2 dfbc 699e 9bbc 6295 60bc a57d d33c
000002e0: 01c1 9dbc bffd b73c d1ac 483d 5b7e 723c
000002f0: cd90 cfbb 016c 313c d524 f5bc 9dcd cc3b
00000300: e5e0 dbbb 90ba 53bd 88f5 e1bc cbc1 053d
00000310: 68e8 65bc a169 103c 7487 033d 3a5f ae3c
00000320: 3df1 3f3d 9b91 543c c69c 3ebd eee1 1d3c
00000330: c788 80bc 69d5 553c c133 733c 88a8 65bb
00000340: ddb3 c0bb d6a2 53bd 4e64 8f3d 0d14 e53b
00000350: caa4 9fba a47a c7bc 4fdb d03b a4f6 acbc
00000360: 9e96 74bc 684e 3c3d f508 5dbd 5175 96bb
00000370: 33d3 973c b5b7 7b3c 1aa2 32bd 401e b989
00000380: 705d 0fbc c687 a2bc 2933 0fbd 6730 d8bc
00000390: bdda 493c b954 41bc 6925 713c 17f1 b83c
000003a0: 8f83 9a3d 4c61 95bc 0a24 f0bc b47d 43bd
000003b0: af59 dbbb e4ce 363d 8d9f 7538 1aaf 09bd
000003c0: 510b 853d b58f 323c 28c0 11bd a2a0 133d
000003d0: f749 22bc f227 13bc 4adc 46bd 6914 573d
000003e0: e6d1 5ebb b100 cb3c 0504 b03d 716d d93c
000003f0: 0167 9cbc de04 bbbb afe9 08bd 0e40 2abc
-0.021300467 -0.0026374462 -0.0044997777 0.009200315 0.08667859 0.01641072 0.023462528 -0.032044694
-0.0059182593 0.011337952 0.029878043 0.02341796 0.014516927 -0.01121266 -0.00019776657 0.007622291
0.03293327 -0.035420854 -0.048202515 -0.009805085 -0.017788393 -0.031191288 0.021697987 0.0047694184
-0.026070824 0.05317752 -0.01405064 -0.009278989 -0.0029781873 0.016999621 0.02871877 0.014213285
-0.0009889501 0.04417375 0.04213179 -0.04104588 0.07039445 -0.02057777 0.028829036 0.036842402
0.062321562 -0.04270305 0.018851265 -0.010441762 -0.025806412 0.0027762512 -0.005431303 0.007800653
0.0064882976 -0.030451072 -0.037572607 -0.011989983 0.013958911 0.027735105 -0.00948314 -0.03753626
-0.00089140906 -0.0026029386 0.03210705 0.014733251 0.016867043 0.0022746343 0.009533469 0.03281871
-0.013500824 0.003661555 -0.048683308 -0.010505999 0.05278907 -0.025625005 0.053306956 0.03775843
-0.020338139 -0.0049833944 -0.0038414518 -0.010207265 0.011645377 0.0122243725 0.0032696852 -0.0376209
0.049646273 -0.09077028 0.014226785 -0.005499064 -0.027455306 -0.028873973 -0.025795547 -0.006214822
0.026061244 0.004226889 -0.036783043 0.04984525 0.030478634 -0.031524032 -0.016196609 0.00062737626
-0.009905818 0.013054352 -0.07207831 0.040409237 0.009154601 -0.001344438 -0.029263854 -0.03907304
0.008634802 -0.05360589 -0.008004395 -0.009483543 -0.041470967 0.033760272 0.044635296 0.0059022377
-0.035416115 0.003152537 0.042593166 -0.0064520305 -0.008420275 0.015121762 -0.013702482 -0.023477858
0.02234658 0.029105874 -0.06466143 0.016392803 0.044413093 0.0009479352 -0.024385333 2.468628e-33
0.030089162 0.022745263 -0.037988897 -0.03283178 0.053618185 -0.0033661397 -0.014501988 -0.026373824
0.01970923 0.04380828 -0.01681667 0.012519028 -0.009510713 -0.017724747 -0.036248088 -0.011949939
-0.03446286 0.0030346422 -0.047727104 0.05464941 0.060299248 -0.02624004 -0.031246472 0.06316035
-0.023798224 0.0463455 0.009037262 -0.0065876436 0.049938243 0.012899309 -0.070036516 0.05483372
0.04371667 0.029656636 0.055522 0.01100321 0.0015813545 -0.022718308 -0.04466895 -0.023416627
-0.017993387 -0.0011290717 -0.0011511266 0.014593002 -0.0054677776 0.01590584 -0.024254227 -0.045456935
0.0283821 -0.04199804 0.0066347867 0.03091381 -0.027329527 -0.018996434 -0.013707491 0.025816748
-0.01925707 0.022459863 0.048992936 0.014800633 -0.0063344003 0.010828973 -0.02992479 0.006250097
-0.006710159 -0.05169159 -0.027582899 0.03265552 -0.014032461 0.008814246 0.0321116 0.021285642
0.046860922 0.012974168 -0.04653623 0.009636385 -0.01569022 0.013051369 0.014843882 -0.003504308
-0.0058808164 -0.051668964 0.070015535 0.0069909156 -0.0012179848 -0.024350472 0.0063738 -0.021113701
-0.014928488 0.04597321 -0.05396362 -0.004591622 0.018533325 0.015363623 -0.043611623 -4.4565577e-33
-0.008750305 -0.019840132 -0.0349609 -0.026390268 0.012320218 -0.011799985 0.014718392 0.022575898
0.07544624 -0.018234871 -0.02931406 -0.0477273 -0.0066940407 0.0446309 5.8561145e-05 -0.033614255
0.06496299 0.01089852 -0.035583645 0.036041863 -0.00990533 -0.008981692 -0.048549928 0.0525097
-0.003399962 0.024780603 0.08594517 0.026541444 -0.019092085 -0.0057073673 -0.033425983 -0.010391248
