analyse_fase-kenmerken_onderzoek/Engagement/modellen/topic-model-bs-2-reduced/topic_embeddings.safetensors (safetensors, 368728 bytes, 1 tensors)

topic_embeddings f4 [240, 384]
00000000: fd19 a2bc 1745 2a3c da8c 0f3c 5399 773c
00000010: 8a2f 6b3d 644f e83b a40c e03c 8224 c5bc
00000020: 2d92 f6bb cd84 6a3b c6e6 5d3c b55f 003d
00000030: 9e1b 9f3c 78a7 4aba df6b 38bc 1889 833c
00000040: 094b f3bb 0fb8 19bd 5668 18bd 1902 1c3b
00000050: aea1 15bc 8adb 95bc a08e aa3c ec46 853c
00000060: 42c2 e7bc 8128 463d c82a 1c3b e5ed fc3b
00000070: de68 a3bb 4d00 313d a6c0 9b3c 62c2 b4ba
00000080: ed3c beb7 f577 323d 9dfe 423d 29f0 0fbd
00000090: fd2b 573d ce73 babc c902 933c 66ff 733b
000000a0: 5343 763d c192 0bbd c4da c53b 6650 3e3c
000000b0: 2cfe 47bc 81bf bd3c 1cfb 71bc 79f3 963c
000000c0: 8a1f 8abc d2d2 17bd 942d c1bc 8357 0c3b
000000d0: 1820 07bc d435 5e3c b8be 2cbb 1927 e7bc
000000e0: 4564 7a3b b471 b1bc 9e52 f03c 6d04 b63c
000000f0: c475 a13b 3e5f 433c 1a6c 093c 6b09 853c
00000100: 0afd dd3b 7805 c539 6f24 1cbd 7ada 3bbc
00000110: a784 af3b cdce 3a3c 138a 473d 568e c83c
00000120: 6330 023c 2065 163c cf2a a5bc e212 d5bc
00000130: b68f 0dbc 7026 863c aaf8 1c3c 1801 05bc
00000140: 8909 213d 56c0 89bd 8a6c c23c 0c23 993b
00000150: ec9e 8fbc c3bd e2bc d155 8cbc c96b ebbc
00000160: 5661 eb3c 799a e03b 7435 23bd 7501 c73b
00000170: c908 583d 2c75 9bbc 5859 cbbc 1a9c 4d3c
00000180: 7301 473c 2b01 d13c 692f abbd d680 143d
00000190: 12fb cdba 3497 02bb 069a 10bd 76ee 1bbd
000001a0: 6e37 28bb bd0f f2bc a222 9ebb 60dd a3bc
000001b0: d6e7 d1bc 6f0c cd3c 0fcc 9f3c f500 babc
000001c0: e3c1 b4bc 54a2 fa3b 32a7 463d 5e91 2dbc
000001d0: 0236 55bc 7523 1fba 51ab ecbc 839f fabb
000001e0: d796 753c 0ab3 253d c12b 55bd df0c 393d
000001f0: 8c17 253d e154 b5bc 82de 23bd daf0 6588
00000200: 4143 963c 232d 133c 8788 b2bc 5366 c5bc
00000210: a5ae 0d3d 3c2b 6cbc b8f4 93bc a7ce d4bc
00000220: cbb3 ea3c c3f5 4e3d 4108 15bc d261 f43b
00000230: 171f cebc df84 663a 5e3c 95bc 6c19 403c
00000240: 2d4c 00bd a2c5 c53c 1b70 eebc 26f7 083d
00000250: 26a0 3f3d 2e25 0ebc b414 b5ba dd7e 883d
00000260: 0854 7fbc b6f7 2b3d 43e2 533b 2192 5dbc
00000270: 3aca 4d3d ed5e a23b 0be5 fdbc b11f 283d
00000280: b01a 7f3c 666b ee3c 02cd ef3c 6a7d 3b3c
00000290: 886f 2a3c f9c8 c9bb 6d93 2fbd 67a2 84bb
000002a0: a363 243b 63a1 7b3b 507a 0bbb ab42 073c
000002b0: b2b2 603c 55b4 183c 7ef8 b6ba e9f2 e9bc
000002c0: c93f 6b3c c0f5 d4bc 1b08 a33b 18a4 0f3d
000002d0: bdca 1cbc 3a11 32bc 18ca 13ba 3d84 a63b
000002e0: b140 e3bc ca81 183d 86e1 013d c2eb f4bb
000002f0: 6c91 f9bc 1920 72bc 740f fdbc f3a9 e63b
00000300: d995 e7bb 878f 8cbc 01fb 1abd 5a6f 903c
00000310: b65a e7bc 85aa 58b9 4f5a ec3c 762b a43a
00000320: 6a2a 9c3c e778 113c 23aa 5ebd 067b 22bc
00000330: 8792 293a 4067 393c 2c2d a53c 316d cebc
00000340: 6f68 d5bc 7744 9fbc 8f18 853d 5428 473c
00000350: a917 b1bb 93ea b2bc dfbc 363c 8493 cf39
00000360: f8ed a2bb ae22 cd3c 8ead 86bd b48a a5bc
00000370: 3e54 c93c 0227 b93c 4d0e 65bd 9c9e 0c89
00000380: 36fd a3bc a10e 15bd 03cc 22bd 9651 af3a
00000390: 8e3b 643c fea8 4f3a 9df6 033a 3222 78ba
000003a0: b8c4 483d 5f91 9d3b c2df adbc 59c1 d8bc
000003b0: 6b8c a33c ea2a 433d d16f ee3c 28a0 a9bc
000003c0: be40 6b3d 3b11 483c ec03 0ebd f286 f93c
000003d0: b65a 85bc eadc cb3b 8bb4 18bd 2eba 503d
000003e0: 8cbb a0bc 6907 fe3c 7a35 933d 9fc0 1abc
000003f0: 7b8a 0dbb b510 6cbc f1ad d4bc 4f30 0e3c
-0.019787783 0.010392449 0.008761609 0.015112239 0.057418384 0.007089542 0.027349778 -0.02406526
-0.0075247497 0.0035784722 0.01354379 0.031341273 0.019422349 -0.0007730643 -0.011256187 0.016056582
-0.0074247164 -0.037529048 -0.037208878 0.0023804961 -0.009132786 -0.018293161 0.020819962 0.01626917
-0.028290872 0.04837847 0.002382921 0.007718789 -0.0049868664 0.043213177 0.01901276 -0.0013790841
-2.2678136e-05 0.04357143 0.0476061 -0.035141144 0.052532185 -0.022760298 0.017945664 0.0037231087
0.0601228 -0.034075502 0.006038042 0.011615848 -0.012206595 0.023162605 -0.014769342 0.018426644
-0.016860742 -0.03706629 -0.023581304 0.0021414466 -0.008247398 0.013562638 -0.0026358794 -0.028216885
0.0038206738 -0.021660663 0.02933627 0.022218907 0.004927369 0.011924563 0.00838759 0.016239842
0.0067745494 0.00037578843 -0.038120683 -0.011465663 0.0053563896 0.011401844 0.048715662 0.024481934
0.007946107 0.0091793835 -0.020162014 -0.02600998 -0.00864022 0.01637575 0.0095807705 -0.008117937
0.039315734 -0.06726138 0.023733396 0.0046733674 -0.017531835 -0.027678376 -0.017130764 -0.02873792
0.028732937 0.006854352 -0.0398459 0.0060731717 0.052742753 -0.01897677 -0.024822876 0.012549425
0.012146342 0.025513252 -0.08358652 0.03625568 -0.0015715084 -0.001992655 -0.03530314 -0.03806921
-0.0025667804 -0.02954852 -0.004825906 -0.02000302 -0.025623243 0.025030343 0.019506482 -0.022705534
-0.022065109 0.0076487456 0.048499294 -0.01059374 -0.013013365 -0.0006070652 -0.028890284 -0.00764841
0.014989576 0.040453948 -0.05204368 0.04517829 0.04030566 -0.0221352 -0.04000712 -6.91953e-34
0.018342616 0.008982929 -0.021793617 -0.024096644 0.034590382 -0.014414605 -0.018061027 -0.025977446
0.028650185 0.050527345 -0.009096206 0.00745795 -0.02516131 0.0008793603 -0.018217262 0.011724811
-0.031322647 0.02414209 -0.02910619 0.033438824 0.04678359 -0.0086758565 -0.0013815374 0.06664822
-0.015583999 0.041984282 0.0032330907 -0.013523609 0.050241686 0.0049551637 -0.030993005 0.04104585
0.015570328 0.029103946 0.02927256 0.011443475 0.010402568 -0.006157991 -0.042865206 -0.00404768
0.0025083802 0.0038395755 -0.002128262 0.008255641 0.013714479 0.009320338 -0.0013959554 -0.028558211
0.014358469 -0.025996089 0.0049753315 0.0350686 -0.009569821 -0.010868365 -0.00056377193 0.005081682
-0.027740808 0.03723315 0.031709217 -0.0074743936 -0.03046485 -0.0147781605 -0.030891158 0.0070393025
-0.007067424 -0.017158283 -0.037837032 0.017631222 -0.028241497 -0.00020662889 0.028851656 0.0012525159
0.019063193 0.008878923 -0.054361474 -0.009917026 0.00064686727 0.011316121 0.020163141 -0.02519855
-0.026050774 -0.019441826 0.06498825 0.012155611 -0.005404432 -0.02184037 0.011153429 0.00039592024
-0.0049722157 0.02504095 -0.06576072 -0.02020774 0.024576303 0.022601608 -0.05592184 -1.6926465e-33
-0.020018201 -0.036390904 -0.039745342 0.0013375755 0.013930215 0.0007921605 0.00050340017 -0.0009465545
0.04901573 0.0048085894 -0.02122486 -0.026459383 0.019964417 0.047648348 0.029106053 -0.020706251
0.05743479 0.012211139 -0.03467171 0.030459855 -0.016278606 0.0062214034 -0.037281554 0.050958805
-0.01962068 0.031009393 0.07187934 -0.0094453385 -0.0021597433 -0.01440828 -0.025961848 0.00867851
